hyperFakeModel/examples/experiments/results/trained_models_20250525_181944/deep_neural_network/model.pth (torch, 57217 bytes, 26 tensors)

0.weight f4 [128, 3]
000000 93 ea 0c bf 9c eb a0 3e 88 5c 97 be 22 30 a1 3e
       -0.5504543 0.31429756 -0.29562783 0.31482035
000010 e8 e3 7c 3e f7 ec ed 3e 2a dd ff be 35 61 f8 be
       0.24696314 0.46469852 -0.49973422 -0.48511663
000020 50 ae 97 3e a4 26 04 be fa 1e df 3e 32 45 89 be
       0.29625177 -0.12905365 0.4357832 -0.26810604
000030 54 e6 e0 3e 24 ff 9b 3e ef 3d 70 be 64 67 c4 3e
       0.43925726 0.30468094 -0.23461126 0.3836013
000040 96 78 58 3d df c0 c2 3e 50 95 91 bc b7 9e 6d be
       0.052849375 0.38037774 -0.017771393 -0.23205076
000050 da a7 57 3e 29 45 96 be e1 05 ce 3e 7d 1c ae 3e
       0.21060124 -0.2934964 0.4023886 0.3400611
000060 5b e3 ed be c9 5d f7 bc e9 8c 11 bf 01 5b 12 3e
       -0.4646252 -0.030196087 -0.56855637 0.14292528
000070 a3 82 12 3f ce b8 a8 3d 51 e1 9d 3e d8 e5 dd be
       0.57230586 0.08238374 0.30835965 -0.4333942
000080 81 16 e6 bd d4 63 d3 be 10 13 5a be da ad e7 3d
       -0.11234761 -0.412871 -0.21296334 0.113124564
000090 5d 09 85 be 16 e9 74 3e 3b a3 a7 be f0 bd cb 3e
       -0.25983706 0.2391704 -0.32741722 0.39793348
0000a0 d6 9d 96 3e 24 3f 05 bf 5c 32 70 be 64 c6 13 3f
       0.29417294 -0.5204947 -0.2345671 0.57724595
0000b0 5c 29 00 bf 0a f1 c0 3e 02 5f d3 3e 3b d5 01 3d
       -0.5006311 0.37683898 0.41283423 0.031697493
0000c0 2d 05 b5 3e 62 f1 0c 3f 06 ec 0e be 0e 2e 3a 3e
       0.3535551 0.5505582 -0.13957223 0.18181631
0000d0 63 3c 51 3c bb 98 60 bd 68 0e 8b 3e 42 96 0b 3e
       0.012770745 -0.054833155 0.2715943 0.13631538
0000e0 0e 70 09 bf 2e be 19 3d 17 21 c9 be a9 62 84 3e
       -0.53686607 0.037534885 -0.39283058 0.25856522
0000f0 6d 8b a7 3d 8d f7 85 3d 92 08 a1 3e 33 51 f5 3e
       0.0818089 0.06541357 0.3145185 0.47913513
000100 71 69 82 be a7 31 a8 be a5 0a 83 be b7 33 c5 3e
       -0.2547107 -0.32850382 -0.2559406 0.38516018
000110 a5 75 dd 3d 23 0c 06 bf ad 89 8b be 3d 18 da 3e
       0.108134545 -0.5236227 -0.27253476 0.42596617
000120 91 4a cc 3e b8 1e 9e 3c 7d 3f 8d be c4 90 d3 3e
       0.3990064 0.019301757 -0.275875 0.41321385
000130 82 e1 d4 3e 07 fe f4 3c 40 85 45 be 7d 1a 07 bf
       0.415783 0.029906286 -0.19289112 -0.5277479
000140 c9 32 46 be 41 e5 13 3e 06 82 56 3e e0 7b 0f 3f
       -0.1935531 0.14442922 0.20948038 0.56048393
000150 b9 8a 8d be 9b fe 7e 3e 07 0e da bd 73 ef 79 be
       -0.276449 0.24901812 -0.10647207 -0.24407749
000160 fd c3 dc 3e 4d 6b 0f bf 5d 35 03 bf 32 12 a8 bb
       0.43118277 -0.56023103 -0.512533 -0.005129122
000170 bd b2 a9 3e 13 90 d5 3d 41 eb cd be 44 6a 44 3e
       0.3314418 0.104278706 -0.40218547 0.19181162
000180 af 23 f3 3e eb fa e9 bd 4f 83 ff be 00 0a 03 bf
       0.47488162 -0.11424812 -0.49904868 -0.51187134
000190 e2 64 e8 3e 5d 43 d9 3e f0 90 99 3e 30 4f f1 3e
       0.45389467 0.42434207 0.2999339 0.47130728
0001a0 f7 65 97 be a0 ae 45 3e 7c 1a ca be 62 c0 28 be
       -0.2956998 0.19304895 -0.3947333 -0.16479638
0001b0 77 c7 16 3e 54 e8 3f 3e f1 d4 37 be 23 bb da 3e
       0.14724527 0.1874097 -0.17952324 0.427209
0001c0 c1 59 9e 3e c2 e1 e8 3e e1 82 ee 39 8f 3a f8 3e
       0.30927852 0.4548474 0.0004549241 0.48482177
0001d0 8e 5d 08 3f a7 ea b8 bd 35 ca 14 be d6 09 5c 3e
       0.53267753 -0.090291314 -0.14530261 0.21488127
0001e0 86 e3 a2 be 70 d6 c3 bd 46 90 71 3e fa d7 60 be
       -0.31814212 -0.09562385 0.23590192 -0.21957389
0001f0 a7 15 4c be 93 2b e4 bd 3f db 7d be 4b 93 a8 bd
       -0.19930135 -0.111411236 -0.24790667 -0.08231219
000200 f1 44 0b bf 6f 73 81 be d6 44 8d be 93 24 20 be
       -0.5440207 -0.2528338 -0.2759158 -0.15638952
000210 3d db a4 be b2 cf f2 3e 0e 80 d8 3e 65 d4 0f 3f
       -0.32198516 0.47424084 0.42285198 0.56183463
000220 db 10 a1 3e 4a a0 02 bf 4b 6e 3c 3e 3c e3 e4 3e
       0.31458172 -0.5102583 0.18401448 0.44704616
000230 94 09 fd be 77 e3 9c be 7d 76 08 3f 10 0e e4 be
       -0.4942137 -0.30642292 0.533058 -0.4454198
000240 6b 9e a8 3e 54 56 d9 3e 50 d3 3e 3e ba 49 e2 bd
       0.32933363 0.42448676 0.18635297 -0.110492185
000250 e5 aa c2 be 3b 6a 5c 3e 11 1c a3 bd 3d 3b 6d 3e
       -0.38021007 0.21524899 -0.079643376 0.23167129
000260 f1 fe b4 be 0d f6 a8 be c3 4e bd bc 56 34 9e be
       -0.35350755 -0.33000222 -0.023108846 -0.30899304
000270 1d 4f 2d 3d a5 df 66 3d 1c 37 07 bf bd 78 00 3f
       0.042311776 0.056365628 -0.52818465 0.5018423
000280 9d 2c e7 be 09 65 b8 3a 7d 09 0a bf b5 3d 09 3f
       -0.45151225 0.0014068197 -0.5392073 0.5360978
000290 f4 7f 48 3d 85 20 65 3e e7 6b c9 bd f2 83 3d 3d
       0.04895015 0.22375686 -0.09835034 0.04626841
0002a0 1f b1 ad 3d 4a 6a f3 3e f0 91 03 3f f8 d6 39 3d
       0.08481049 0.4754203 0.5139456 0.045371026
0002b0 fa f8 e7 3e bc f8 01 3f 57 55 e6 3e e6 46 00 bf
       0.45307142 0.50770164 0.44986984 -0.5010818
0002c0 77 68 e2 3c 51 bf 27 3e 04 33 b8 be 08 8a 83 be
       0.027637703 0.16381575 -0.35976422 -0.25691247
0002d0 fa c8 6f be 04 c4 d7 be b7 dd 4f 3e 2e 2d af be
       -0.2341651 -0.42141736 0.20299421 -0.34214157
0002e0 43 e6 6b 3e a3 65 d8 3e 2a 01 33 be bc 98 db be
       0.23037057 0.42265043 -0.17480913 -0.42889965
0002f0 b7 8d 1c 3e 9e 4c 5d be 84 a8 97 3e 74 b5 dc be
       0.15288435 -0.21611258 0.29620755 -0.43107188
000300 a0 28 38 be b1 e4 ad 3e f0 3e 74 be fb 9c 78 3e
       -0.17984247 0.3396354 -0.23852134 0.24278633
000310 33 c3 10 bf af bd 51 be 2c 65 a5 3e c4 15 87 3e
       -0.5654785 -0.20482515 0.3230375 0.26383793
000320 3f d4 c5 3e af 33 06 3f 7f c9 04 bf 46 e7 82 be
       0.38638493 0.5242261 -0.5186996 -0.25567073
000330 ad 74 39 3e 07 f3 e7 3d e5 26 e3 be 50 cc cb be
       0.18110915 0.11325651 -0.44365612 -0.39804316
000340 e0 31 c5 3d 83 c4 82 be 46 45 8f 3e 90 e1 a7 be
       0.096286535 -0.25540552 0.2798254 -0.32789278
000350 b8 9e ff be e4 41 0c 3e 48 ce 00 bf e1 29 8b be
       -0.4992578 0.1369701 -0.5031476 -0.2718039
000360 68 40 09 bf ee c5 dc 3c 3b 8b 0c 3f 9e 9c 92 be
       -0.536139 0.026949849 0.5489995 -0.28635114
000370 dd 34 e5 3e 91 1e d0 be de a1 fb 3e f7 2a 4d be
       0.44766894 -0.4064832 0.49146932 -0.20035921
000380 44 d9 06 be c1 f3 d1 bc c6 46 3f be 2b b9 05 3f
       -0.13168818 -0.025628926 -0.18679342 0.5223567
000390 63 6d 71 3e fe 6b f6 be b9 12 ae 3e 2c 29 8c be
       0.23576884 -0.48129267 0.3399866 -0.27375162
0003a0 a0 fe 80 3e a1 b1 c2 be a0 d4 72 bd ce 30 69 3e
       0.25194263 -0.38026145 -0.059284806 0.22772524
0003b0 fd 57 e2 3e 63 a9 c3 3d f8 d5 87 be 43 2f 27 be
       0.44207755 0.09553792 -0.26530433 -0.16326623
0003c0 78 ad 68 3e 03 4d c7 3d a5 fc 0b bf 40 13 dd be
       0.22722423 0.09731486 -0.5468238 -0.4317875
0003d0 be b2 c9 3e 66 ca 8b be 30 a6 b3 be 35 c4 11 3f
       0.39394182 -0.27302855 -0.35087729 0.56940013
0003e0 45 b3 0b 3f 1a 5a 00 3f cb a8 10 3d 35 a5 d5 3e
       0.5457042 0.50137484 0.035317224 0.41727605
0003f0 ff 57 2a 3c 79 fe 0e 3f 68 ff 97 3e 18 6f 13 3f
       0.0103969565 0.55857044 0.29687047 0.5759139

0.bias f4 [128]
000000 f4 38 3d 3e d4 67 0e bf 01 39 ad 3e 50 3d 89 3e
       0.18478757 -0.5562718 0.33832553 0.2680459
000010 77 da a2 bd 11 9c 45 be 93 9d 97 3d 26 2d f4 3c
       -0.07951825 -0.19297816 0.07403102 0.029806685
000020 c4 7f 02 3f 72 63 a9 3e 06 99 9d bb b1 aa 09 bf
       0.50976205 0.33083683 -0.0048095016 -0.5377608
000030 1b 7c 4a 3e f4 59 c6 be d4 7a 25 3d eb 15 c0 bc
       0.19773905 -0.38740504 0.04040034 -0.023447951
000040 ac d3 ab 3d fc 28 ed 3e c7 9d 12 bf 1b 9e 99 bc
       0.083899826 0.4632033 -0.57272 -0.018752148
000050 7b 15 dd 3d bc 3b d7 bd 7e 4c 0a 3f d6 c2 ee be
       0.10795113 -0.1050944 0.5402297 -0.46633023
000060 a3 a6 dc be 27 84 b7 be 96 2c a8 3e 27 fa a3 3e
       -0.43095884 -0.35843012 0.32846516 0.3202679
000070 d7 19 be be c6 8a 2c be 18 ca d9 be dd 84 d9 3d
       -0.3712909 -0.16849813 -0.42536998 0.10621045
000080 6c 2d 04 3e 97 e1 7c 3e cd 60 ba be 84 e6 77 be
       0.12907952 0.2469543 -0.36401978 -0.24209028
000090 60 be 04 3f a2 05 6f 3c af 3d 52 3e 62 46 23 3d
       0.5185299 0.014588745 0.20531343 0.039862044
0000a0 be 4f 8e be e8 5b 13 bf 9b 6c 03 3f 2e d2 f0 be
       -0.27795213 -0.5756211 0.51337594 -0.47035354
0000b0 b7 8f f0 be 81 70 86 be e1 5f c0 bc 82 d9 9b bd
       -0.46984646 -0.2625771 -0.023483219 -0.07609846
0000c0 d7 4f 13 bf a3 0c 10 bf df b5 f7 be 9c 6a 0d 3d
       -0.575437 -0.5626928 -0.48380944 0.0345255
0000d0 f8 96 0d bf 50 e0 97 be 9d 54 38 be c3 2c 94 be
       -0.55308485 -0.29663324 -0.18001027 -0.289404
0000e0 55 6c 00 be 07 d4 aa 3d 62 b8 f2 3e f1 d9 9a be
       -0.12541325 0.08341222 0.47406298 -0.302444
0000f0 93 15 d6 be c9 d6 f5 3e e6 f1 cc 3e c7 e5 f4 be
       -0.41813335 0.4801543 0.40028304 -0.47831556
000100 64 f3 0e bf f5 62 05 bf e6 e0 49 3d 72 95 be be
       -0.55840135 -0.5210412 0.049286745 -0.37223393
000110 d6 20 ac be 47 e8 9c 3e 98 a6 cf be a1 4b bf be
       -0.33618802 0.30645964 -0.40556788 -0.37362388
000120 81 22 dd bd 09 56 02 bc 2a 7f 06 3e 46 1f 09 be
       -0.10797597 -0.007955083 0.13134447 -0.13390836
000130 54 c5 ca 3e 4e fe bd be e7 9d b8 be 9e 6d f2 3e
       0.39603674 -0.37108082 -0.3605797 0.47349256
000140 e7 7a e3 be 9e 4d af 3e ad 8a 00 bf f7 34 d3 be
       -0.44429705 0.34238905 -0.502116 -0.41251346
000150 fb 80 ae be 0d 45 43 3c cd 5a 53 3d 03 dc ac be
       -0.3408278 0.011918318 0.051600266 -0.33761606
000160 af b6 e9 be 37 65 b6 be 63 e9 50 3e 37 97 ae 3e
       -0.4564719 -0.35624096 0.2040153 0.34099743
000170 06 7e c8 3e 19 b4 c6 3e fb 6e c1 3d f1 c1 f3 be
       0.39158648 0.3880928 0.09444996 -0.47608903
000180 fa cc ad be a9 03 e4 bd bb dc 2e 3d 38 9f 38 be
       -0.33945447 -0.111335106 0.042690974 -0.18029487
000190 f4 8b 44 3e 5a d6 03 bf 6e 44 f0 be 4b 07 1d 3e
       0.19194013 -0.5149895 -0.46927208 0.15334813
0001a0 30 0e d8 be 5f 99 cc be 32 c5 28 3e 69 5c 8b 3e
       -0.42198324 -0.39960763 0.16481474 0.2721894
0001b0 8d ae a5 be bf 5a ae 3e 92 d9 55 3d b6 3a d9 3e
       -0.32359734 0.3405361 0.052209444 0.42427605
0001c0 cf 36 f7 3d 1f a1 c9 be af 46 f1 3c ee 91 11 3f
       0.12071001 -0.39380738 0.02945265 0.56863296
0001d0 2d c6 99 3e d5 63 8b be bd e2 92 be 3b ee 10 bf
       0.3003401 -0.27224603 -0.28688613 -0.5661351
0001e0 7f 94 09 bf fa ff c5 3e d7 20 93 be 22 69 5c bd
       -0.5374221 0.38671857 -0.28735992 -0.0538112
0001f0 6f 34 5b 3e 60 b9 41 be 6e 95 03 3f ad 86 ef 3e
       0.2140672 -0.18918371 0.51399887 0.46782437

1.weight f4 [128]
000000 c3 0b 7f 3f a4 02 80 3f be 38 80 3f 3b a5 7f 3f
       0.9962732 1.0000806 1.0017316 0.99861497
000010 92 f4 7f 3f 04 96 80 3f 46 8c 80 3f 86 bc 80 3f
       0.9998256 1.0045781 1.0042808 1.0057533
000020 cf ce 7f 3f 18 04 81 3f 81 c1 80 3f 56 cf 7e 3f
       0.9992494 1.0079374 1.0059053 0.9953512
000030 ca 61 80 3f 97 26 80 3f 6a 0d 81 3f 32 ed 7e 3f
       1.0029843 1.0011777 1.0082219 0.9958068
000040 e4 db 7f 3f bd f9 7e 3f 50 7e 80 3f 04 5d 80 3f
       0.999449 0.9959982 1.0038548 1.0028386
000050 f5 6e 80 3f 0a 14 80 3f e5 58 80 3f 63 2d 7e 3f
       1.0033861 1.0006115 1.0027128 0.99288005
000060 63 a6 7f 3f c7 5c 80 3f ce 79 7e 3f 3d df 7f 3f
       0.9986326 1.0028313 0.9940461 0.9995001
000070 f4 6b 80 3f d8 8f 7f 3f d2 b0 80 3f 8c 48 80 3f
       1.0032945 0.99828863 1.0053961 1.002214
000080 4e 1a 80 3f c2 7b 80 3f 39 5a 80 3f 84 31 80 3f
       1.0008028 1.0037768 1.0027534 1.0015111
000090 7f 6c 7f 3f f6 8f 80 3f ee 5b 7f 3f e7 c2 80 3f
       0.99774927 1.0043933 0.9974965 1.005948
0000a0 da 9b 7f 3f 69 54 7e 3f 25 0c 80 3f 84 6b 7d 3f
       0.99847186 0.9934755 1.0003706 0.9899218
0000b0 81 a5 7f 3f 78 57 80 3f 75 a5 7f 3f b2 5d 7f 3f
       0.99861914 1.0026693 0.9986184 0.9975234
0000c0 b7 87 7f 3f f5 39 7f 3f 17 7d 80 3f 1d 45 80 3f
       0.9981646 0.9969781 1.0038174 1.0021092
0000d0 f5 a1 7e 3f 54 4a 7f 3f d5 06 81 3f c2 a0 7e 3f
       0.99465877 0.9972279 1.008021 0.99464047
0000e0 5f 2b 81 3f d9 d4 7e 3f f9 b0 7f 3f fa 1a 80 3f
       1.0091361 0.9954353 0.99879414 1.0008233
0000f0 e4 7c 7f 3f 48 d3 7d 3f 6f 57 80 3f 3e 46 80 3f
       0.9979994 0.99150515 1.0026683 1.0021436
000100 24 bb 80 3f e6 82 80 3f d3 34 7f 3f 0a a7 7e 3f
       1.0057111 1.0039947 0.9968998 0.9947363
000110 4f 45 80 3f 1c 04 80 3f 57 b1 7f 3f a1 4d 80 3f
       1.0021151 1.0001254 0.99879974 1.002369
000120 67 ee 7e 3f 08 72 80 3f 35 3a 7f 3f 6c ee 7f 3f
       0.99582523 1.00348 0.9969819 0.9997318
000130 53 88 7f 3f 93 f4 80 3f 60 b6 80 3f 85 e7 7f 3f
       0.9981739 1.0074638 1.0055656 0.99962646
000140 77 12 80 3f 47 84 81 3f c0 2f 7f 3f 03 31 7f 3f
       1.0005635 1.0118493 0.99682236 0.9968416
000150 99 62 7e 3f 93 26 7f 3f 08 54 7f 3f 88 17 80 3f
       0.993692 0.99668235 0.99737597 1.0007181
000160 5b 57 7e 3f b1 07 80 3f e6 8c 80 3f 3e 32 7c 3f
       0.99352044 1.0002347 1.0042999 0.98514163
000170 c1 09 80 3f fd 5e 7d 3f 90 62 81 3f dd be 80 3f
       1.0002977 0.98973066 1.0108204 1.0058247
000180 87 42 7f 3f b1 76 80 3f ff 8e 7f 3f 1e 9d 80 3f
       0.9971089 1.0036222 0.9982757 1.0047948
000190 ef 1d 80 3f 5b 37 80 3f 64 6a 80 3f d7 4b 80 3f
       1.0009135 1.0016893 1.0032468 1.0023144
0001a0 fb c2 80 3f 7f d2 7e 3f af 77 80 3f e0 ab 80 3f
       1.0059503 0.9953994 1.0036525 1.0052452
0001b0 7e f1 7e 3f f9 e7 7e 3f 56 fa 7f 3f af 46 80 3f
       0.9958724 0.9957271 0.9999136 1.0021571
0001c0 78 fd 7d 3f f7 02 7e 3f 1a 29 80 3f d3 25 80 3f
       0.9921489 0.99223274 1.0012543 1.0011543
0001d0 71 8b 7f 3f 22 52 80 3f c6 1f 7f 3f 76 cf 7e 3f
       0.99822146 1.0025065 0.9965786 0.9953531
0001e0 64 b7 7f 3f ef 90 7f 3f 28 23 81 3f 0a 5d 80 3f
       0.99889207 0.99830526 1.0088854 1.0028393
0001f0 8c 89 80 3f 06 ce 7d 3f d4 fe 7d 3f 7c 3e 80 3f
       1.0041976 0.9914249 0.9921696 1.0019069

1.bias f4 [128]
000000 a9 36 9c bb 0b 68 fa 3a 9d b0 15 3c a7 38 c3 bb
       -0.004767258 0.0019104494 0.009136346 -0.005957681
000010 c1 02 5d bb f0 8a 9a 3b b1 be 1d 3b c0 d1 f9 3b
       -0.0033723565 0.0047162697 0.002406996 0.007623881
000020 4d eb 1e 3b 84 e8 89 3b b9 03 5c ba df bc 46 3b
       0.0024249137 0.004208626 -0.00083928887 0.0030324978
000030 c5 5e 3a 3b 66 fc 2a 39 58 82 e9 39 f7 87 28 3b
       0.0028437835 0.00016306489 0.00044538337 0.0025715807
000040 4f 3b 73 ba 4b 1d 07 3b 95 49 84 3b 00 f9 06 3b
       -0.0009278552 0.0020616825 0.004037092 0.0020595193
000050 1d 64 44 3b 89 22 cf 3b 59 e8 88 3b 83 82 14 bb
       0.0029966899 0.0063212556 0.0041780886 -0.00226608
000060 6d 8f 0c bb 7d 42 8c 3b c6 05 b3 bb 3e 61 06 3a
       -0.0021447793 0.004280387 -0.0054633347 0.00051261846
000070 a4 45 9f bb 55 3b 9d bb 8e 7b 9e 3b a7 d9 75 3b
       -0.0048605967 -0.0047983327 0.004836506 0.0037513764
000080 8c 6d 89 3b 1f d8 70 3b 4c 9b 44 3b 70 bf 06 bc
       0.004193967 0.0036749912 0.002999979 -0.008224353
000090 16 ae 26 3b b7 34 b0 3b 60 3d bd 3a 4f 1f a2 3b
       0.0025433353 0.005377378 0.0014437847 0.00494758
0000a0 df 47 7a bb c7 cf 76 bb c1 2b bd bb c1 c8 19 bb
       -0.0038189811 -0.0037660466 -0.005773038 -0.0023465606
0000b0 80 cd 9d bb 40 c9 3a 34 64 4c 46 3b d9 8a 5d bb
       -0.0048157573 1.7395814e-07 0.0030257935 -0.0033804683
0000c0 3b b1 e2 bb 35 a8 c3 bb c8 f6 29 bb bf bb 11 bb
       -0.0069181 -0.0059709796 -0.0025934447 -0.002223715
0000d0 20 bf 21 bb 9c 88 47 bb 6f 34 a4 b9 1b b9 ee bb
       -0.002468057 -0.0030446416 -0.00031319584 -0.00728525
0000e0 e8 e3 72 3c b1 e7 97 ba 3b 5d 7c bb 31 47 2e 3b
       0.014824845 -0.0011589435 -0.0038507718 0.0026592726
0000f0 b4 a0 13 ba d9 83 c9 bb 6d 39 00 bb e1 0d eb ba
       -0.00056315516 -0.0061497507 -0.0019565478 -0.0017933213
000100 86 60 6f b7 b7 a4 f1 bb e4 3d 2c 3a d0 18 1a ba
       -1.4267984e-05 -0.007374372 0.0006570502 -0.0005878331
000110 0d 64 69 3b c9 32 9f 3b 08 51 19 bc b8 5e d1 bb
       0.0035612613 0.004858349 -0.009357698 -0.006389465
000120 81 09 b1 bb af 80 74 3b 00 7d dc 34 3b a8 92 ba
       -0.0054027443 0.0037308147 4.1069143e-07 -0.0011189053
000130 3e d8 6f bb 8e 2a 3d 3b 76 07 45 ba 17 d1 aa bb
       -0.0036597396 0.0028864476 -0.00075160654 -0.0052129137
000140 d7 3e ed ba 26 7c e8 ba 7b 2b 4b bb 90 6f 2d bb
       -0.0018100393 -0.0017737194 -0.0031001258 -0.0026464202
000150 a9 65 cd bb 43 91 07 bb 97 38 76 bb 7d d1 4e ba
       -0.0062682224 -0.0020685948 -0.0037570351 -0.00078894926
000160 cc ef df bb 79 ec ea 3b 51 42 16 39 5c 43 f3 3a
       -0.006834006 0.007169303 0.0001432982 0.0018559503
000170 69 98 83 39 1a 78 a6 bb c8 36 41 3b 9a 7b ad 3b
       0.00025099822 -0.005080235 0.0029482115 0.0052942755
000180 58 01 60 bb 9a 25 e0 38 46 10 0a 3b b9 0f c6 b8
       -0.0034180488 0.00010688156 0.0021066829 -9.444304e-05
000190 ca bb 80 b9 dd 70 62 b9 80 eb 15 3b 89 69 dd 3a
       -0.00024553976 -0.00021595084 0.0022875965 0.0016892414
0001a0 a9 e5 37 3a 64 2d c2 3a 15 a4 4d b9 75 e7 bd 3a
       0.0007015118 0.0014814553 -0.00019611449 0.0014488535
0001b0 c6 1c b2 bb 54 5c b7 bb a1 9c 89 3b f1 e2 98 3b
       -0.005435559 -0.005595723 0.00419958 0.0046657254
0001c0 03 5c 27 ba f1 44 03 bc 39 59 66 bb 7d a8 9d bb
       -0.0006384255 -0.008012042 -0.0035148396 -0.004811345
0001d0 83 8e 26 b9 f9 c6 45 bb 9f 2a d3 ba c7 07 55 bb
       -0.00015884083 -0.0030178411 -0.0016110725 -0.0032505856
0001e0 f9 b8 83 ba 34 41 e2 ba 59 c9 27 3c bb 7c f4 ba
       -0.0010049633 -0.0017261864 0.010240876 -0.0018652895
0001f0 b4 89 b3 3b d9 6c 80 bb 77 63 11 bb 84 be 6e 3b
       0.005479062 -0.0039192257 -0.002218453 0.0036429474

1.running_mean f4 [128]
000000 d3 ba 33 3e a8 04 0f bf 64 55 ab 3e b1 b4 86 3e
       0.17551737 -0.5586648 0.33463585 0.26309732
000010 71 94 99 bd 3d ea 43 be cd 54 99 3d cc 11 92 3c
       -0.07499016 -0.19132324 0.074868776 0.017830752
000020 14 1b 02 3f 77 7e a6 3e 4b d8 bf 3b c2 c1 0a bf
       0.5082257 0.3251836 0.0058546416 -0.542019
000030 ff 77 46 3e c5 0d c3 be 99 ea 0b 3d db 6f bf bc
       0.19381712 -0.38096443 0.034159277 -0.023368767
000040 81 cc aa 3d 5e a6 ee 3e 0a e5 10 bf b8 0a 7f bc
       0.08339787 0.46611303 -0.56599486 -0.01556652
000050 a9 74 d8 3d a0 23 bd bd 3d ec 07 3f 0a b6 f2 be
       0.10569126 -0.092353106 0.53094846 -0.4740451
000060 db aa d8 be 2a 39 b7 be 2f e5 aa 3e 0e 54 a1 3e
       -0.42317852 -0.357858 0.33377978 0.3150944
000070 b7 3c c1 be ec bd 30 be ea ee de be fc 60 e3 3d
       -0.37741634 -0.1725995 -0.43541652 0.11102483
000080 0b d4 10 3e e8 0e 6c 3e a8 de b9 be b4 b5 6e be
       0.14143388 0.23052561 -0.36302686 -0.23311502
000090 ba 14 05 3f e6 df 56 3c dd 9b 47 3e c2 ec 1d 3d
       0.5198475 0.013114905 0.19493051 0.038555868
0000a0 5a 0c 91 be e5 4c 13 bf 53 f0 03 3f 95 45 f0 be
       -0.28329736 -0.57539207 0.5153858 -0.46928087
0000b0 26 b5 f7 be 1c 1b 82 be 65 a3 b5 bc ca 9b aa bd
       -0.48380393 -0.25411308 -0.02217264 -0.08330496
0000c0 7c d5 13 bf 9b b9 0f bf b9 3a f8 be d7 cb 05 3d
       -0.57747626 -0.56142586 -0.48482302 0.0326651
0000d0 28 7a 0c bf f7 5d 91 be b2 60 47 be d2 1d 92 be
       -0.54873896 -0.28392002 -0.1947048 -0.28538376
0000e0 23 88 09 be 31 1e 98 3d e9 0a f9 3e 93 4c 96 be
       -0.13430838 0.074276336 0.48641136 -0.29355296
0000f0 d9 05 d6 be b2 14 f0 3e dc b1 cd 3e e5 7e f6 be
       -0.41801336 0.4689079 0.40174758 -0.48143688
000100 60 2a 10 bf ef 48 02 bf 4d 5e 42 3d ad 64 b6 be
       -0.5631466 -0.5089254 0.047453213 -0.35623685
000110 6f 9d a9 be 6e 78 9a 3e 33 68 c9 be dd f8 b9 be
       -0.33127925 0.30170006 -0.3933731 -0.3632268
000120 d3 f2 f6 bd 10 a5 67 bc 0f 5a 11 3e f1 9f 0b be
       -0.12058034 -0.014138475 0.14194511 -0.13635232
000130 6b 0f ce 3e c3 f5 bf be 6d 5d bc be b7 7a f5 3e
       0.40246138 -0.3749219 -0.36790028 0.47945186
000140 ed 15 e0 be 8a d3 aa 3e 66 c8 04 bf d8 88 d1 be
       -0.43766728 0.33364516 -0.51868284 -0.40924716
000150 1c 33 b3 be ea dc b0 3c a3 ac 20 3d 53 30 a8 be
       -0.3499993 0.021589715 0.03922714 -0.32849368
000160 b2 07 e4 be b8 6f b8 be b0 0d 5a 3e bb a1 a7 3e
       -0.4453712 -0.36022735 0.21294284 0.32740578
000170 c3 8b c8 3e d8 96 c2 3e 86 c2 cd 3d 2b 10 f4 be
       0.3916913 0.3800571 0.10046868 -0.47668585
000180 15 55 ad be 41 b9 e3 bd 67 35 14 3d d3 df 2c be
       -0.33853975 -0.11119319 0.03618374 -0.16882257
000190 6c 20 45 3e 3a d9 04 bf 9a 69 f0 be a3 e7 1f 3e
       0.19250649 -0.5189396 -0.46955568 0.15615706
0001a0 7d b1 d2 be 7d a2 ca be 88 ec 34 3e ea 04 89 3e
       -0.41151038 -0.39577094 0.17668355 0.26761562
0001b0 ec e0 a2 be 4a 2a aa 3e e3 46 38 3d 86 af d7 3e
       -0.31812227 0.3323539 0.044989478 0.421261
0001c0 be ee 02 3e 33 cb c8 be 15 ec cc 3c be cf 14 3f
       0.12786385 -0.3921753 0.025014916 0.5812949
0001d0 36 87 9b 3e 0b 2f 8f be cb dc 94 be 05 2b 0f bf
       0.30376595 -0.27965578 -0.29074702 -0.5592502
0001e0 ce d6 09 bf dd cc cb 3e 2a 4d 93 be 50 54 6d bd
       -0.5384339 0.39804736 -0.2876981 -0.057941735
0001f0 6f 5a 4e 3e 91 f5 45 be 88 16 01 3f 21 95 ef 3e
       0.20151685 -0.19331957 0.50425005 0.46793464

1.running_var f4 [128]
000000 b3 1d fb 3e d5 25 d7 3e 28 5f 21 3f c1 fc 8d 3e
       0.49046096 0.4202105 0.6303582 0.27731898
000010 d8 4e be 3e e4 27 a8 3e 62 3b d0 3d f3 a7 a6 3e
       0.37169528 0.32842934 0.101675764 0.3255001
000020 eb 40 18 3f 85 46 c2 3e 8c 71 87 3e 12 6d 81 3e
       0.59474057 0.37944427 0.26453817 0.25278527
000030 4b 5f 72 3e e4 2a 08 3f b3 39 24 3f ec af b8 3e
       0.23669164 0.53190446 0.6415054 0.36071718
000040 d7 a0 ff 3e 32 df 17 3d 5b 20 c2 3e 6b a2 67 3e
       0.499274 0.03707809 0.3791531 0.22620551
000050 2f 6b ed 3d 8a 98 b9 3e a0 f8 4e 3e 14 94 0d 3f
       0.11592709 0.3624919 0.2021203 0.55304074
000060 46 c3 6c 3e 28 58 cb 3e 02 43 c5 3e e7 c6 cc 3e
       0.23121366 0.39715695 0.38527685 0.399955
000070 1e 4a 12 3e 15 e2 11 3f 87 5c ba 3e c4 5a 54 3e
       0.14286086 0.569856 0.36398718 0.2073775
000080 46 d9 e8 3e 0e 25 13 3f 63 c3 dd 3e 81 a0 4c 3e
       0.45478266 0.57478416 0.4331313 0.19983102
000090 cd 34 c2 3d c0 6a 0d 3f 3d ab 04 3f 83 e3 9f 3d
       0.09482727 0.5524101 0.5182379 0.07807066
0000a0 51 5a 2d 3e 11 9f ee 3d 82 9e c9 3e e9 4a 42 3e
       0.16928984 0.11651433 0.39378744 0.18973888
0000b0 eb c0 e9 3e 4e bd 33 3f 98 60 ff 3e c7 f9 12 3f
       0.45654997 0.7021073 0.49878383 0.5741238
0000c0 9b dd bd 3e 0a 4b 5c 3e 9f 25 42 3e 6f d3 68 3e
       0.37083134 0.21513 0.18959664 0.22736906
0000d0 f8 a2 92 3e 81 45 d5 3e 5c 5e 06 3f 70 02 79 3d
       0.2863996 0.4165459 0.5248773 0.06079334
0000e0 47 42 03 3f 23 0b f2 3e 11 be d4 3e fb 5f 50 3e
       0.51273006 0.47274122 0.4155126 0.20349114
0000f0 05 be 98 3e 3b c4 a1 3e 8a 0f 84 3e f6 bd a7 3e
       0.29832473 0.31595024 0.25793105 0.32762116
000100 45 f2 4e 3e 72 15 c5 3e a3 63 bb 3e 95 1d 0a 3f
       0.20209606 0.38492924 0.36599454 0.5395139
000110 c9 00 78 3e 1d 5b 7d 3e 44 a3 cb 3e dd 82 a6 3e
       0.2421905 0.24741788 0.39773 0.32521716
000120 96 25 10 3f ef 02 e5 3e b6 7d 8e 3e 7b 33 a1 3e
       0.5630735 0.447288 0.27830285 0.3148459
000130 c9 2b cc 3e 95 a0 94 3e 26 7f 7a 3e c9 72 c9 3d
       0.39877155 0.29028764 0.24462566 0.09836347
000140 0a 89 b6 3e a5 73 d0 3e 36 0f 2d 3f ba de f2 3e
       0.35651428 0.4071323 0.67601335 0.47435552
000150 93 e8 cd 3e a4 3b e8 3e e4 ee e4 3e 31 a9 71 3e
       0.40216503 0.45358002 0.4471351 0.23599698
000160 a4 6a 20 3f ca a1 86 3f 6b 10 8c 3e 45 28 f5 3e
       0.6266272 1.0518124 0.27356276 0.47882286
000170 d2 de d0 3e b4 6f 25 3f d3 d1 a4 3d 90 3a 0f 3c
       0.40794998 0.6462357 0.08047833 0.00874199
000180 a8 3f 0b 3f 4a a8 ba 3e c6 56 d6 3e b9 3f 91 3e
       0.54394007 0.3645652 0.41863078 0.2836893
000190 55 67 6d 3e 24 9a ca 3e 21 51 b4 3e 14 b4 5b 3e
       0.2318395 0.39570725 0.35218146 0.21455413
0001a0 e2 c2 8b 3e 86 e1 81 3f 31 74 b4 3e 8d 48 1a 3f
       0.2729712 1.0146949 0.35244897 0.60266954
0001b0 bc 04 c0 3e 0c 61 1b 3f d2 a7 46 3f 93 c8 0c 3f
       0.37503612 0.60694957 0.77599823 0.5499355
0001c0 3c bf 74 3e 18 16 b2 3d d2 74 95 3e e1 ef c5 3e
       0.23901075 0.0869562 0.2919069 0.38659576
0001d0 da 92 c7 3e 23 79 67 3e 2e c8 ea 3d 80 eb 8b 3e
       0.38979226 0.22604804 0.114639625 0.2732811
0001e0 f2 f0 2c 3f 15 e4 97 3e be 1d 9d 3e 0f cf aa 3e
       0.67555153 0.296662 0.30686754 0.33361098
0001f0 1b 99 bc 3e ad eb 3d 3f 7b 90 b0 3e 0e 09 7f 3e
       0.3683556 0.7418774 0.3448523 0.24905798

4.weight f4 [64, 128]
000000 fe 24 64 3d f8 8a a3 bd 2a 70 ac 3c f4 92 00 3c
       0.05569934 -0.079854906 0.021049578 0.007847536
000010 35 c1 87 3d 88 45 6e bc a8 77 1a 3d 95 af 5a 3d
       0.06628648 -0.014542945 0.03771177 0.053390104
000020 6d 13 97 3d 34 71 59 bd d6 fa af 3d df 6a 82 bc
       0.07376752 -0.053086475 0.08592765 -0.0159201
000030 1f 83 8d bd 46 65 8f 3d 9f f4 7d 3d 80 16 36 3c
       -0.06909775 0.07001738 0.062000867 0.011113763
000040 ee 48 6b bd 1c 1f 7c 3d c7 8a b6 bc 52 29 83 3d
       -0.057442598 0.061553106 -0.022282971 0.064043656
000050 ff 52 33 3d ce 0c 93 3c dc bc 2f bd f4 cf 63 bc
       0.043780323 0.017950442 -0.04290472 -0.01390456
000060 0a 84 24 3d c5 53 4c 3b e1 ce ff bb 4a 1d 69 bd
       0.040164985 0.003117786 -0.0078066443 -0.056912698
000070 f2 cc 9c 3d 10 19 f7 bb a4 a5 ae 3d 30 a5 26 3c
       0.07656278 -0.0075408295 0.08527687 0.01017122
000080 bd cf 94 bc 6a 38 bb bc cf 11 9e 3d 88 2a 16 bd
       -0.018165464 -0.022854049 0.077182405 -0.036661655
000090 e2 47 71 3c 01 ff 52 3d ce a7 d3 bc 15 61 8e 3d
       0.014726611 0.051512722 -0.025836851 0.06952111
0000a0 4f 5b 56 3d d7 af 4b 3c d3 ee 76 bd 40 21 7f 3c
       0.052333172 0.01243206 -0.060286354 0.015571892
0000b0 0b ff 98 3c c4 32 64 3d 55 be 8b 3c 94 89 b6 bc
       0.018676301 0.055712476 0.01705853 -0.0222824
0000c0 ae 26 9d 3d 34 59 8f bd d7 46 02 bd b5 80 a6 3d
       0.07673393 -0.06999436 -0.03180584 0.08130018
0000d0 68 37 ab bd 35 fe 54 bd 13 d6 83 bd 2a e0 69 bd
       -0.08360177 -0.052000243 -0.06437316 -0.057098545
0000e0 4f 5c fb 3c 69 27 3c bc 15 a1 ad 3d 00 64 b9 3c
       0.030683665 -0.0114840055 0.084779896 0.022630692
0000f0 f1 69 02 bd 85 30 01 bb 81 df a9 bd 34 65 1e 3c
       -0.031839315 -0.0019712758 -0.08294583 0.009667683
000100 40 8b a4 3c 8b 48 02 3d a5 42 6b bd 9a 75 90 3d
       0.02008593 0.031807464 -0.057436604 0.07053681
000110 a9 d7 99 3d 00 34 8b bd 3d 6a ff 3b 97 7d b0 bd
       0.07511837 -0.067970276 0.007794647 -0.08617704
000120 be 1c 72 3d fe 34 6a bd 93 e2 fa bc d2 ce 18 3c
       0.059109442 -0.057179444 -0.030625617 0.009326654
000130 41 e3 6c 3c 33 85 a0 3d dc 65 60 3d ad 45 81 bd
       0.014458478 0.07837906 0.05478464 -0.06312118
000140 8c 67 3f bc 37 a7 81 bd 68 35 97 3d 90 24 25 bd
       -0.011682402 -0.06330722 0.07383233 -0.04031807
000150 5c 99 84 3d a8 21 13 3d 02 b2 7f bc 07 dd bb 3c
       0.064745635 0.03592077 -0.015606405 0.022932542
000160 c4 78 15 3d a8 98 78 3d 3b 1e 3d 3c 73 42 ba bd
       0.036492124 0.06069246 0.011542852 -0.090947054
000170 f3 96 58 3d a4 74 06 bd 6c ed ad 3d a2 78 5e 3d
       0.05287833 -0.03282608 0.0849255 0.054314263
000180 83 15 59 3d e4 bd eb bc 57 61 bb 3c 94 06 99 bc
       0.05299903 -0.02877707 0.022873564 -0.018679895
000190 fc 19 8f 3b 37 14 21 bd 0d fe 18 3d dd 40 0e bd
       0.0043671113 -0.03932592 0.037351657 -0.034729827
0001a0 5c d4 66 bd af 5e 7a bd 30 2c ef 3c b6 f7 a4 3d
       -0.056354865 -0.061125454 0.029195875 0.080550596
0001b0 20 5b a9 3d cf 7e 16 bd 25 05 7e 3c 70 ca 6d bd
       0.08269334 -0.036742028 0.015504156 -0.058054388
0001c0 26 19 a0 3b 00 11 e5 3c 31 fd 04 bd 6e a9 14 3d
       0.0048858104 0.027962208 -0.032468025 0.036294393
0001d0 86 12 49 bd 21 46 90 bd c1 be 66 3c 1c 51 9e 3d
       -0.04908993 -0.07044626 0.014083565 0.07730314
0001e0 77 d1 99 3b 9d b5 95 bc 23 12 ce 3c 1e 30 43 bc
       0.0046941596 -0.018275077 0.025155133 -0.0119133275
0001f0 00 31 31 3a 43 d9 31 bb a4 d2 cf 3b 11 92 5f 3d
       0.0006759316 -0.0027137555 0.006342249 0.05458266
000200 f7 d4 8b 3d 5f 29 ec 3c 1d 26 45 bc af 7f b1 3c
       0.06827729 0.028828321 -0.012033013 0.02166733
000210 eb 66 29 bd c9 29 a1 bd ca e8 26 bc c4 af 8b bd
       -0.041357916 -0.07869298 -0.010187337 -0.06820634
000220 97 62 0d 3d 64 f0 a1 3d ef 23 8a 3c 65 89 60 bd
       0.03451785 0.07907179 0.016862838 -0.05481853
000230 5c 53 23 3d 74 32 b9 3c d4 b0 96 bd e6 8a 4b 3b
       0.03987442 0.022607066 -0.07357946 0.0031058132
000240 95 b7 85 bd bb 3b 86 bc a3 60 91 3d 33 3b 0b 3c
       -0.06529156 -0.016385904 0.0709851 0.008498001
000250 37 f9 5e 3d 8a 4a da 3c 0e ae 62 bd b2 e3 8f 3d
       0.05443689 0.026646871 -0.055341773 0.07025851
000260 37 c3 df 3a 96 29 7b bc 4c d7 75 bd a9 be 16 3d
       0.0017071728 -0.015329739 -0.060019776 0.03680292
000270 96 92 8f 3d 58 0c 08 bd 23 9b 30 bd b7 5e 13 bd
       0.07010381 -0.033214897 -0.0431167 -0.035979
000280 9c 03 31 3d c3 a1 8c bd f1 e2 90 bd 3e ff d8 3c
       0.043216333 -0.06866791 -0.07074536 0.026488896
000290 8f 7f 3f 3d 16 1b 33 3c c2 a2 25 bd 60 a3 b3 bd
       0.04675251 0.010931751 -0.04043842 -0.08771396
0002a0 b9 ec fb bc 1f 87 30 bd 8a e1 cb ba 4f 3c 77 bd
       -0.030752527 -0.04309761 -0.0015554887 -0.06036025
0002b0 d7 bf 88 bd f5 71 9d bd 63 db b7 bc ae 9e 23 bd
       -0.066772155 -0.07687751 -0.022443479 -0.03994625
0002c0 5d b7 9d bd eb f1 b8 3c fe 56 df bb bb ed f2 b8
       -0.077009894 0.022576293 -0.00681579 -0.0001158374
0002d0 7a a8 51 bd ec 38 b2 bd 9c 99 ba bd 0c a2 bd bb
       -0.051186062 -0.08702263 -0.0911133 -0.0057871398
0002e0 cb 7e bd bd 03 b4 96 3d 6e 45 a7 bd eb 83 85 3d
       -0.092526995 0.07358553 -0.081675395 0.06519302
0002f0 74 7e 9b 3c 94 59 8b 3d a7 f9 66 bd a8 4b 58 bd
       0.018981196 0.06804195 -0.05639043 -0.052806526
000300 be b1 59 3d 23 ff 5a bd e5 6f 2e bc ee f8 eb 3c
       0.053148024 -0.053465974 -0.010646795 0.028805222
000310 e4 cf 86 3d 5a 49 8f 3d 47 8d 7b bd 0a 87 95 3d
       0.06582621 0.069964126 -0.06141403 0.07301147
000320 02 a8 93 3d 76 3a c6 3c 67 14 23 3d b2 81 63 3d
       0.07209779 0.024197798 0.03981438 0.05554361
000330 62 1f 06 bd 23 6d 9d 3d de d2 5b bd d1 90 a1 bd
       -0.032744773 0.07686832 -0.053667895 -0.0788895
000340 2a c5 44 bd 15 9a 8f bd 80 4a 4b bb 93 1b 85 3d
       -0.048039593 -0.07011811 -0.0031019747 0.064994
000350 f3 ba 75 3d 6b eb 5e 3d aa 31 dc 3c 27 0c b8 3d
       0.05999274 0.05442373 0.02687915 0.08986693
000360 31 45 5e 3d 93 e0 5a bc ea 4b 99 bd 10 43 cf bb
       0.054265205 -0.013359207 -0.074851826 -0.006325133
000370 da 97 02 3d 5c 83 5a bd 4b ee a7 bd 9f 4a 62 bc
       0.0318831 -0.05334793 -0.08199748 -0.013811736
000380 c9 da 83 bd 9c 26 bb 3d 6c 6c 1d bc cb 4a a0 3d
       -0.06438214 0.091382235 -0.009608369 0.078267656
000390 5d 5a ac 3c 2c 29 52 bd 0f b7 6c bc 39 f6 9b bc
       0.021039182 -0.051308796 -0.014447941 -0.019038307
0003a0 96 c5 9f bc 9e fc 2f bd c6 43 af 3b 4f 81 86 3d
       -0.019503396 -0.042965524 0.0053486554 0.065676324
0003b0 85 82 dd b6 cb 20 5e bd 65 ea 1b 3c 97 7b ed 3c
       -6.6015077e-06 -0.054230493 0.009516333 0.028989596
0003c0 86 7d bb 3c 79 04 8a bd 66 d6 bf 3c b7 ac 71 39
       0.022887003 -0.06739134 0.023417663 0.00023047892
0003d0 6e b4 f7 b9 a4 a4 06 3d 2f 87 36 3d 61 2b 5c bd
       -0.00047245942 0.032871857 0.044562515 -0.053752307
0003e0 bb e7 ab bc 66 00 2b 3c d1 b9 8b bd c6 2e 29 3d
       -0.020984521 0.010437107 -0.06822551 0.041304372
0003f0 cc a0 81 bd 00 c2 13 3c 65 09 8b 3d 3d 38 b9 bd
       -0.06329498 0.009018421 0.06788901 -0.0904393

4.bias f4 [64]
000000 29 80 04 bd b8 e9 37 bc bf b2 9f bd 85 b0 c2 39
       -0.032348786 -0.0112251565 -0.07797765 0.0003713408
000010 f5 65 23 3d b1 cb 31 3d 4b 6c af bd 00 da e9 3c
       0.039892156 0.043407146 -0.08565577 0.028546333
000020 c5 e0 a4 3d 50 02 15 3c 39 ec 26 bd e8 cf cd bb
       0.08050684 0.00909479 -0.040752623 -0.006280888
000030 10 79 38 3c 51 a0 5e bd d2 d1 22 3d 5e f5 c9 bc
       0.011259332 -0.05435211 0.03975088 -0.024653133
000040 34 d5 40 bc c0 6f 9c bd 1e 0c be 3c ef 01 99 3d
       -0.011769582 -0.07638502 0.023199137 0.07471072
000050 cd 10 11 bc 89 54 5d bd 67 ea bb bc c6 b6 66 bd
       -0.008854103 -0.054035697 -0.02293892 -0.05632665
000060 54 45 9f bd 61 3c c7 3c 3a 77 1a bb 77 7d a7 bd
       -0.07776895 0.024320783 -0.00235696 -0.081782274
000070 8b 61 84 bd 31 15 a9 bd 87 0d 00 3c b3 82 fe bc
       -0.06463917 -0.08255995 0.007815725 -0.031068182
000080 ce 06 9c bd f2 a4 23 3d f2 79 57 3d 61 db 64 3c
       -0.076184854 0.039952226 0.05260653 0.01396832
000090 b6 e8 ab 3d c7 49 83 3b 21 31 6a 3d 26 aa 83 bd
       0.083939955 0.0040065977 0.05717576 -0.064289376
0000a0 ac ce 47 bd 16 1f b2 3d 1e 00 23 bd a9 c6 a3 bd
       -0.048781082 0.086973354 -0.039795034 -0.07996876
0000b0 eb 60 90 bb dc 7d 41 bc 44 f4 49 bc d5 4a 3a bd
       -0.004406085 -0.011809792 -0.012326304 -0.04548152
0000c0 6d f4 81 bd 06 44 41 3c c1 92 83 3d f1 1e 2a 3d
       -0.06345449 0.011796003 0.064244755 0.041533414
0000d0 93 65 a4 bd ce 7d a1 3d 7e 80 26 bc b9 b2 ab 3d
       -0.08027186 0.078853235 -0.010162471 0.08383698
0000e0 9b 0a c7 bc 63 0b 88 3d 02 9e 9b 3b 25 18 0d bd
       -0.02429705 0.06642797 0.0047490606 -0.034446854
0000f0 5d 4a af bc a8 02 a8 3b 49 c2 9b 3d 47 cc 0c 3d
       -0.021397764 0.00512727 0.07605416 0.0343745

5.weight f4 [64]
000000 7d e9 7d 3f a1 3f 80 3f 3b 0f 80 3f 64 26 80 3f
       0.991844 1.0019418 1.0004648 1.0011716
000010 59 1f 81 3f 91 0c 80 3f 82 33 80 3f 00 18 80 3f
       1.0087692 1.0003835 1.0015719 1.0007324
000020 2e e8 80 3f b9 bb 80 3f 88 e0 7f 3f 55 6d 81 3f
       1.0070856 1.0057288 0.9995198 1.011149
000030 0d b6 80 3f d7 a8 7e 3f 5b cf 7e 3f c9 a0 7f 3f
       1.0055557 0.9947638 0.9953515 0.99854714
000040 aa 84 7e 3f c7 c7 7e 3f 63 00 7f 3f fd db 80 3f
       0.9942118 0.99523586 0.99609965 1.0067135
000050 67 61 80 3f b3 41 7d 3f 06 12 80 3f 22 97 80 3f
       1.0029725 0.98928374 1.00055 1.0046122
000060 b9 d6 7e 3f 60 f1 80 3f bd c6 7d 3f 8c 0e 80 3f
       0.9954639 1.0073662 0.99131376 1.0004439
000070 ae 38 7f 3f b0 27 7f 3f b9 5c 81 3f 3f a1 80 3f
       0.9969586 0.99669933 1.0106422 1.0049208
000080 c2 48 7e 3f 8b 03 80 3f 1d 82 80 3f e6 b3 7e 3f
       0.9932977 1.0001081 1.0039707 0.99493253
000090 c9 70 7f 3f 84 40 81 3f 05 5a 81 3f c9 2e 81 3f
       0.9978147 1.0097814 1.0105597 1.0092403
0000a0 bd af 7d 3f f2 dd 7f 3f 1c b7 7d 3f 39 5a 81 3f
       0.9909628 0.99948037 0.9910753 1.0105659
0000b0 28 ca 80 3f 0a 2a 81 3f 2d 38 7e 3f e3 51 7f 3f
       1.0061693 1.0090954 0.9930447 0.99734324
0000c0 3d 3f 7c 3f fc 31 7f 3f 05 85 80 3f a1 02 80 3f
       0.98533994 0.99685645 1.0040594 1.0000802
0000d0 71 34 7f 3f 2d b3 80 3f 25 fb 7e 3f 01 e0 80 3f
       0.99689394 1.005468 0.99601966 1.006836
0000e0 af 5d 7d 3f 84 e8 80 3f 3d 4a 80 3f c4 b5 7c 3f
       0.98971075 1.0070958 1.0022656 0.9871485
0000f0 a4 74 80 3f 69 a1 7d 3f 68 97 80 3f a3 e1 80 3f
       1.0035596 0.9907442 1.0046206 1.0068859

5.bias f4 [64]
000000 12 88 0a bc 0d 94 29 3b ae d6 eb ba 8b 26 56 3b
       -0.008455293 0.0025875599 -0.0017993057 0.0032676782
000010 4d 09 0b 3c 13 f1 37 3a c6 de 73 3b a0 33 0b bb
       0.008486104 0.0007016819 0.003721164 -0.0021240488
000020 91 5e e7 3b 71 f0 eb 3b a2 c4 43 bb ef 5e 44 3c
       0.0070608337 0.0072002937 -0.002987184 0.011985525
000030 7e d3 90 3b 71 16 19 bc 35 e7 b6 bb 7c c0 0a 38
       0.004419743 -0.009343729 -0.0055817612 3.308103e-05
000040 bd 23 f3 bb 1e 80 88 ba 25 16 dd b9 eb 27 0c 3c
       -0.007420032 -0.0010414158 -0.00042168904 0.008554439
000050 34 b2 89 3b 84 d5 32 bc 39 bd ae 3b 0a c0 21 3c
       0.0042021517 -0.010915164 0.0053326157 0.009872446
000060 5f 24 98 bb 45 13 4a 3c 8e 61 e0 bb 49 e9 bd bb
       -0.0046430076 0.012333696 -0.006847567 -0.005795632
000070 67 d1 9b 39 89 ec 5f bb 62 02 82 3c e6 3f b1 3a
       0.0002971992 -0.0034168086 0.015870277 0.0013523072
000080 53 18 52 bb 89 12 68 3b 9d 51 e1 3a 49 92 85 bb
       -0.0032057955 0.0035411438 0.001719046 -0.0040762764
000090 f3 05 c7 bb 30 da ff 3a 56 de 3f 3c 99 d0 12 3c
       -0.0060737072 0.0019519981 0.011710724 0.008960866
0000a0 45 0c f1 bb 80 cb 87 b9 72 13 c9 ba 6e 25 07 39
       -0.007356199 -0.00025900826 -0.0015340878 0.00012888547
0000b0 de 25 ea 3b aa 04 6f 3c c8 6d 22 bb d5 73 72 38
       0.0071456274 0.014588514 -0.0024784673 5.7805173e-05
0000c0 12 f6 6e bc c6 38 a6 ba c2 f6 ac 3b 1f fd 99 bb
       -0.014585035 -0.0012681715 0.0052784393 -0.004699364
0000d0 52 7e f1 ba 83 fe 0b 3c ea 11 06 bb 84 1c d7 39
       -0.0018424487 0.008544567 -0.0020457455 0.0004102924
0000e0 a9 cb 07 bc b6 7b a1 3b 8e 9d ec 3b 3e 08 6a bc
       -0.008288302 0.0049280776 0.0072209304 -0.014284192
0000f0 cf 55 8f 39 fa cf 2a bb 82 07 ce 3b 92 c5 2e 3b
       0.00027339018 -0.0026063905 0.006287516 0.0026668054

5.running_mean f4 [64]
000000 f3 3e 9a 3e 92 06 5a be 6b bc 9c be 27 5f 76 3e
       0.3012615 -0.21291569 -0.30612502 0.24059735
000010 e4 1d ca be c3 22 cc 3d c6 69 98 bc a1 f6 9f 3e
       -0.3947593 0.09967568 -0.018605124 0.3124285
000020 18 4e 56 3e 52 45 fe be f2 fc 24 be b4 d4 ad 3e
       0.20928228 -0.49662262 -0.16112116 0.33951342
000030 78 95 52 be 7e 78 2e 3e c1 69 11 be c3 f2 1a be
       -0.2056483 0.17038152 -0.14200498 -0.15131669
000040 5a cb 78 be d1 49 1f 3e af 59 8b 3e 9b 71 22 39
       -0.24296322 0.15555502 0.2721686 0.00015491845
000050 f4 bf 07 3e 69 7b 29 3b bd 95 a7 bd 66 76 a1 be
       0.13256818 0.0025860912 -0.08182857 -0.31535643
000060 51 cc 8f bd 87 80 2d bf 7f 7a e4 3d e7 b3 93 3e
       -0.07021392 -0.6777424 0.11156177 0.28848192
000070 79 ba 8f 3e 63 b1 25 be 3a 55 0b bf eb 02 4a be
       0.28071955 -0.16180949 -0.5442692 -0.19727676
000080 bc 54 34 3b 4f 48 9f 3d 47 e7 fa bd 57 42 ab bd
       0.0027516326 0.07777464 -0.12251144 -0.08362263
000090 48 af 90 ba c4 5b 5c 3e 9b 90 91 be ab 88 2c 3d
       -0.0011038566 0.21519381 -0.28430638 0.042122524
0000a0 35 02 36 bd c0 d6 bd bd 1f 47 4c be 55 9c b1 3d
       -0.0444357 -0.09269476 -0.19949006 0.08672396
0000b0 1a 25 b0 3c 21 e5 8d 3e 3a 45 71 bd 39 05 ee be
       0.021502066 0.27713874 -0.05890391 -0.4648836
0000c0 a6 43 b9 bd 4c 6f 0c 3e 04 e9 92 3e a8 c2 cf be
       -0.09046106 0.13714331 0.28693402 -0.40578198
0000d0 53 a0 be be 60 cf ad be 58 f6 bf 3b 54 be 1b 3e
       -0.37231693 -0.33947277 0.005858224 0.15209323
0000e0 64 c9 3c be 13 11 04 3e a8 3a d8 be 12 a2 bf 3e
       -0.184362 0.12897138 -0.4223225 0.37428337
0000f0 60 5f 55 bd 69 71 e4 be 16 bf 81 be d6 15 06 be
       -0.05209291 -0.44617775 -0.253411 -0.13094267

5.running_var f4 [64]
000000 70 03 86 3e 3b a3 1d 3e de f1 17 3e 6a 9c 48 3e
       0.26174498 0.15394299 0.14838359 0.19590917
000010 e0 18 5a 3e 2b 5f 01 3e d5 b2 2a 3e 15 0c 28 3f
       0.21298552 0.1263396 0.16669782 0.65643436
000020 71 c6 25 3e a6 08 95 3e 4e 64 ed 3e cc aa 8d 3e
       0.1618898 0.2910816 0.4636559 0.2766937
000030 50 dd 62 3e e9 42 1c 3e db 4a f2 3d 37 14 8d 3e
       0.22154737 0.15259899 0.11830684 0.27554485
000040 9a 5e 11 3e 15 b8 3d 3e 7d eb 71 3e c3 05 8e 3e
       0.14196244 0.18527253 0.23624988 0.2773877
000050 15 4c 29 3e 31 7f 90 3e 94 14 a9 3e d1 0f 8f 3e
       0.16532929 0.2822204 0.33023512 0.27941754
000060 39 30 04 3e 49 68 a1 3e d5 fa 5f 3e 1b 77 49 3e
       0.1290902 0.31524876 0.21873029 0.19674341
000070 0c 90 86 3e 29 e9 00 3e c6 89 9a 3e 54 9f c1 3e
       0.26281774 0.12588944 0.30183238 0.3781687
000080 16 49 cd 3e 7b 61 43 3e d1 8d 8c 3e 73 e4 e2 3d
       0.40094823 0.19080155 0.27451947 0.110787295
000090 2d d2 3d 3e 70 b9 50 3e 2e b0 8b 3e 15 64 17 3e
       0.18537207 0.20383239 0.27282852 0.14784272
0000a0 1d 24 2c 3e 86 6e 45 3e 84 8c 2b 3e 99 d4 7d 3e
       0.16810651 0.19280443 0.16752821 0.24788131
0000b0 f4 01 87 3e 5f e3 fe 3d 07 08 0c 3e 17 b7 7c 3e
       0.26368678 0.12445711 0.13674937 0.24679218
0000c0 7b 08 26 3f 6c 43 39 3e fd aa 01 3e d9 b9 a4 3e
       0.6485669 0.18092126 0.12662883 0.3217304
0000d0 d2 fb 42 3e 8d c9 8a 3e b4 ea 07 3f d2 03 17 3e
       0.19041374 0.27106896 0.53092504 0.14747551
0000e0 c8 02 5b 3e 66 7f 3e 3e d2 a8 9a 3e b9 2c 6e 3e
       0.2138778 0.18603286 0.30206925 0.23259248
0000f0 f0 77 81 3e 99 1f 4e 3e 54 fb 85 3e bb cb 6e 3e
       0.25286818 0.20129241 0.2616831 0.23319905

8.weight f4 [32, 64]
000000 ac 65 f6 3d e5 e7 a8 3d 57 78 ce 3d 63 f7 2a 3d
       0.12031111 0.08247355 0.10081547 0.041739833
000010 8c 39 da bc d3 4f c9 bd f8 42 c0 3c 9e 58 0e 3d
       -0.026638769 -0.098296784 0.023469433 0.03475248
000020 66 cd 08 bb ca 23 8b 3c 72 02 dd 3d dd bd e1 bd
       -0.002087438 0.016984839 0.10791482 -0.11022542
000030 33 45 bd 3d 4b 9d b4 3c a5 aa c7 bc 7f 6a ea bd
       0.09241714 0.02204766 -0.024373362 -0.11446094
000040 c9 1d 9b 3d 6b a8 bd bd a8 16 61 bc 25 a5 8d bd
       0.075740404 -0.09260639 -0.013738312 -0.069162644
000050 d2 61 ac bd f1 cc 8d bd 49 2b cc bd 11 9f 39 bd
       -0.08417095 -0.06923855 -0.099691935 -0.045317713
000060 ec 03 f1 bd a1 bd 5d 3d eb 42 be bd df 69 10 3d
       -0.11768326 0.054135922 -0.09290107 0.035257217
000070 b0 e4 51 bd 98 eb 81 3d 3f fa ca 3d 92 58 af bd
       -0.051243484 0.06343764 0.09911012 -0.08561815
000080 ef b3 c8 bc dd f7 41 3d 6f a0 5d bd 8f a1 8c 39
       -0.024499862 0.04735552 -0.05410808 0.0002682325
000090 db 04 b7 3d c7 38 bf 3c 48 a3 81 bd aa 0d 54 bd
       0.08936473 0.023342503 -0.063299716 -0.051770844
0000a0 57 b4 14 3d 1e 02 96 bd 17 0c 68 3d 5a 50 58 bd
       0.036304798 -0.073246226 0.056652155 -0.052811004
0000b0 dc bf c7 3d ad ba 73 bd f1 72 93 3d 3b 58 76 3d
       0.09753391 -0.0595042 0.07199658 0.060142737
0000c0 b2 1c 8f 3d bf ad 9a 3d 18 86 c6 bd 72 b4 99 3c
       0.06987895 0.07552671 -0.09693545 0.0187628
0000d0 95 5c da 3d ae 03 c3 bd f1 b8 dd bd d1 ef 3f 3d
       0.1066219 -0.09522186 -0.108262904 0.046859566
0000e0 79 11 11 bd 88 23 79 bd 68 df 9a bd eb 81 76 bd
       -0.035417054 -0.0608249 -0.075621426 -0.060182493
0000f0 84 ca ac 3b c7 2f 7c bd 35 36 d4 3d 17 23 23 bd
       0.005273165 -0.061569 0.10361902 -0.039828386
000100 f6 0a b6 bd f0 da c2 bd da 68 fb 3d 7f 78 02 bd
       -0.088888094 -0.09514415 0.12275858 -0.031853195
000110 d3 3d 2e 3d 3b 80 fb 3d 5f d3 b6 bd b5 d9 bd 3d
       0.04253943 0.122803174 -0.089270346 0.0927004
000120 50 21 dd 3d 06 02 fd 3d 6e 61 a0 3d 0d 93 8e bc
       0.107973695 0.123539016 0.07831083 -0.017404104
000130 76 75 00 be 52 fd 9f 3d 6c 59 7c bd 84 b1 de 3d
       -0.12544808 0.07811989 -0.061608717 0.10873702
000140 e6 ab 02 bd 42 05 00 bd 84 97 de 3d 29 5d 95 3d
       -0.031902216 -0.031255014 0.10868743 0.072931595
000150 f0 14 f6 bd 48 51 08 3c 88 32 56 bd 2b c4 9f bd
       -0.12015712 0.00832016 -0.052294284 -0.07801088
000160 b6 7f d7 bd 68 74 7d 3c 6b 3b aa bc fd 5f 7b 3d
       -0.10522406 0.015469648 -0.020780286 0.06137084
000170 70 af ca 3d ae 46 e5 bd 79 11 ed 3d 1f 40 ff 3d
       0.09896743 -0.11195122 0.11575598 0.12463402
000180 b6 7b f0 bd e8 58 92 3d 3e fc 2d 3d 3a e2 69 bd
       -0.11742346 0.07145864 0.042476885 -0.057100512
000190 ef dd 25 bc 0f 55 ba bc 11 5f 1c 3d bf 80 a6 3d
       -0.010123714 -0.022745637 0.0381766 0.08130025
0001a0 46 00 77 bd 36 05 b1 ba b4 c6 2f 3d 2f e0 86 bd
       -0.060302995 -0.0013505581 0.042914107 -0.065857284
0001b0 c3 d7 55 3c 33 a8 f0 bc c0 7f f8 bd 51 16 8a bd
       0.01305193 -0.029377079 -0.121337414 -0.06742538
0001c0 16 c9 18 bd 76 a4 8c bd 29 e9 df bc da ae 2a bd
       -0.037301145 -0.06867306 -0.02733286 -0.041670658
0001d0 26 6e a8 bc d6 2a c4 bd f6 67 6d 3d f2 6f ad bc
       -0.020560335 -0.09578483 0.057960473 -0.021171544
0001e0 40 fd c9 3d 6c 0a 75 3d e5 2e ea bd b5 fd 97 bd
       0.09862757 0.059824392 -0.11434726 -0.07421438
0001f0 76 37 b9 3d 8f 8b 0a 3d bf 84 48 bd 67 d6 1d 3d
       0.090437815 0.0338245 -0.04895472 0.038534548
000200 c4 96 f1 bd 61 d0 e0 3b 19 a8 91 3d 49 c0 a3 bd
       -0.117963344 0.006860778 0.0711214 -0.0799566
000210 06 a0 e7 bb a6 f6 4c 3c 8e eb c0 bd f9 57 e7 3d
       -0.007068637 0.012509977 -0.094199285 0.11296076
000220 1e f1 df 3d ae 6e b6 bc 1c 75 93 bc 40 15 e1 bb
       0.10934661 -0.022269573 -0.018000178 -0.0068689883
000230 c7 ef f8 bd d0 8e c3 bd fd 56 11 bd 61 f1 e8 3d
       -0.12155109 -0.09548724 -0.03548335 0.113741644
000240 f8 6e d2 bd 15 67 8a bd 32 cc 6c bc ce 23 8d 3d
       -0.10275072 -0.067579426 -0.014452981 0.06891595
000250 25 bb a7 bd e3 3f cb bd 5a 39 08 3d a4 26 fa bd
       -0.08189992 -0.09924295 0.03325782 -0.12214401
000260 d2 7a 55 3b 1a 65 c3 3d 8b 45 d6 3c 75 6b dd bd
       0.0032574427 0.09540768 0.026156208 -0.108115114
000270 13 59 78 bd 2c fb 95 3d 4c 0e 82 bc bd 46 80 3b
       -0.060631823 0.07323298 -0.015875958 0.0039146827
000280 d8 dd 42 bd d1 14 89 bd ad 6e b4 bd 46 a7 0f bd
       -0.047574848 -0.066934235 -0.08810172 -0.035071634
000290 58 3e c0 bd ce 97 ab bd 0b d2 7c bd d2 73 91 3d
       -0.09386891 -0.08378564 -0.06172375 0.07102169
0002a0 33 46 9c 3b 64 55 ac 3d 04 15 a4 3d ca 4e 08 3e
       0.0047691106 0.084147245 0.08011821 0.13311306
0002b0 d4 fe 86 3c 8a 9a e6 3d 93 f0 99 bd a3 39 3f bd
       0.016478933 0.11259945 -0.07516589 -0.046685826
0002c0 08 13 08 3c e2 d4 00 3e 9a 82 88 bd 39 cd f8 bd
       0.008305319 0.12581208 -0.06665535 -0.12148518
0002d0 22 5a dd bd c8 a0 df bd 34 25 9d 3d bb 45 4f bc
       -0.10808207 -0.109193385 0.076731116 -0.012650902
0002e0 78 33 ef bc 3e 08 cc 3c 13 12 89 3c 44 65 a8 bd
       -0.029199347 0.024906274 0.016732251 -0.0822244
0002f0 5d 06 ab bd ea e6 66 bb 8e 35 2a bd df af ee 3c
       -0.08350823 -0.003523285 -0.04155498 0.029136596
000300 f4 05 24 3c 23 f7 a6 bd fa b5 95 3d 85 8b b6 3d
       0.010011185 -0.08152606 0.073101 0.0891333
000310 79 71 21 3d 32 07 ab bd 21 75 06 3d 35 47 31 3d
       0.039414857 -0.08350982 0.032826547 0.0432808
000320 9a 84 7d 3d 9d 40 a0 3d f3 28 18 bd 95 f4 9d bd
       0.061894037 0.07824824 -0.037148427 -0.07712666
000330 3d a4 25 bd cd b6 c8 3a b6 f5 a4 3c c5 1a d2 3d
       -0.040439833 0.0015313268 0.020136695 0.10259012
000340 18 31 a0 3a c6 9b 92 3d 42 3d f4 3d 1d 21 c8 bd
       0.0012221662 0.07158618 0.119257465 -0.09771941
000350 5e 17 de bd b0 17 11 3d 6a 74 fd 3c 2b 22 3c 3d
       -0.10844301 0.03542298 0.0309393 0.045931023
000360 4a ae d9 bd c2 f3 f1 3a e1 b2 eb bd 57 15 22 3c
       -0.10628946 0.0018459486 -0.11508728 0.009892783
000370 c5 0a d5 bd 16 a5 b3 3b aa db ab bd 4f ea 9d bd
       -0.10402445 0.0054823263 -0.08391507 -0.077107064
000380 a0 fc 95 bc de 40 82 3d fd f0 b3 3d bd b6 f7 3d
       -0.018308938 0.06360029 0.08786199 0.120954014
000390 19 53 fb bc 5d 23 16 3d e3 8e a0 bd 26 d6 13 3d
       -0.030679272 0.03665482 -0.078397535 0.0360929
0003a0 86 f1 95 bd c2 98 86 bd 5f 31 4f 3c 9d eb e9 3d
       -0.073214576 -0.06572105 0.012646048 0.11421893
0003b0 88 4d 39 3d 48 44 02 3d b5 d6 be bd bc db 44 3a
       0.045239955 0.0318034 -0.09318296 0.00075095496
0003c0 1a 27 a7 3d 8d c6 e6 bd 4c 9d b5 3d d9 e7 5c 3d
       0.08161755 -0.11268339 0.088678926 0.053932045
0003d0 7a d7 3d bc 66 26 a7 3d b5 a0 cd 3c 4a 9a b2 3d
       -0.011587018 0.08161621 0.025101045 0.087208346
0003e0 4e 97 4c bc a3 e5 9a 38 d2 f2 0f bd d6 66 9a bd
       -0.012487246 7.3860654e-05 -0.03514368 -0.07539146
0003f0 15 24 2f bd b2 ae 06 bd e2 e0 75 3c 75 e5 d3 3c
       -0.04275902 -0.032881446 0.0150072295 0.02586625

8.bias f4 [32]
000000 59 9d b4 3d 4c 51 24 3d 9b 0f 41 39 da ca ce bd
       0.08819074 0.040116593 0.00018411728 -0.100972846
000010 7f e5 62 bc fc a3 a5 bb 2c 28 c3 bd 65 00 c6 3d
       -0.013848661 -0.005054949 -0.095291466 0.09668044
000020 68 77 d5 bd 67 ed d3 3d 7b 5e 42 bd 76 12 51 3d
       -0.104231656 0.10348015 -0.047453385 0.051042996
000030 a5 a4 b8 bd 0e c2 7b bb e6 6b 78 bd 6e ee a2 3d
       -0.090157785 -0.0038415226 -0.060649775 0.07955633
000040 fa 25 84 bd 21 b9 b8 bd bf d7 9f bd a4 6b 93 3d
       -0.06452556 -0.090196855 -0.07804822 0.07198265
000050 57 8a b6 bd 38 84 31 3d 22 fe cd 3c 0b 72 24 bd
       -0.08913105 0.043338984 0.025145594 -0.040147822
000060 25 ba 07 bd ee 6d 37 ba 92 e2 bc 3d ff fa 30 bd
       -0.033136506 -0.0006997277 0.09222902 -0.04320812
000070 ae 4c c9 bc 59 22 83 3d 4c ed 6f 3d ac b0 36 3d
       -0.024572697 0.06403036 0.058575913 0.04460208

9.weight f4 [32]
000000 57 d0 7f 3f 31 58 80 3f 7b 23 80 3f 5c fa 80 3f
       0.99927276 1.0026914 1.0010828 1.0076404
000010 35 03 81 3f ff d2 7e 3f 5e 46 7c 3f 38 1f 7c 3f
       1.0079104 0.99540704 0.9854487 0.98485136
000020 e7 92 80 3f 56 9b 80 3f c9 f4 81 3f ae 9c 80 3f
       1.0044831 1.0047405 1.0152828 1.0047815
000030 9c 21 7d 3f cd 56 80 3f b2 8e 80 3f 4b 8c 7f 3f
       0.9887941 1.002649 1.0043547 0.99823445
000040 f7 3b 7e 3f ea 35 80 3f 3f 01 7f 3f 7a 1d 7e 3f
       0.9931025 1.0016453 0.99611276 0.9926373
000050 e9 3d 7c 3f e5 74 80 3f c3 04 81 3f b6 7b 81 3f
       0.9853197 1.0035673 1.0079578 1.0115879
000060 e2 57 80 3f 1f 31 81 3f 3d b9 7e 3f 15 e0 7e 3f
       1.002682 1.0093116 0.995014 0.9956067
000070 fa d4 7f 3f c8 81 81 3f a4 00 80 3f 62 65 80 3f
       0.9993435 1.0117731 1.0000196 1.003094

9.bias f4 [32]
000000 4e 2d 8e bb d9 31 8d 3a 96 0d 0d bb 5b 69 16 3b
       -0.004338897 0.0010772302 -0.002152299 0.002295098
000010 0c 2f a9 3b 06 0f 8a bb 9f 22 fe bb 6c e7 c5 bc
       0.005163079 -0.0042132167 -0.007755592 -0.024158202
000020 d5 ec de 3a b0 fa 52 3a 92 19 b1 3b d1 e3 0f 3c
       0.0017007837 0.00080482196 0.0054046595 0.008782343
000030 94 39 83 bb bd 99 6d 3b 4c 57 7a 3b c2 56 d1 3b
       -0.0040046666 0.0036254965 0.0038199006 0.006388516
000040 6d 3e 9d bb fe 4b 0d bc 89 d0 fc 3a 86 26 de bb
       -0.0047987015 -0.008624075 0.0019288223 -0.0067794947
000050 b7 50 3f bc 1f 31 dd 3b 29 6d 22 3c fc 23 9a 3c
       -0.011676959 0.0067502405 0.009913721 0.018815987
000060 ea 4a 13 3a b1 fb 0a 3c 48 ff ee 3b 07 23 9c 3a
       0.0005618768 0.0084828595 0.0072936155 0.0011912294
000070 3b 6d 4d bb d7 5d 4d 3c 31 bf 55 3c 98 ed 17 bb
       -0.0031345624 0.01253458 0.013046072 -0.0023182388
