hyperFakeWorker/tests/function/bfs.onnx (onnx, 4714 bytes, 8 tensors)

model.0.weight f4 [32, 5]
-0.05760349 0.13461761 0.19630665 0.16216873 -0.046223193 -0.1366891 -0.25471827 -0.018106792
-0.3510017 -0.26278102 -0.017417757 0.45861122 -0.051434953 -0.11330921 -0.15774684 -0.32498905
0.1924388 0.17379783 0.10554283 0.1636857 0.06242131 0.0027309335 0.027451018 -0.53162235
0.17005542 -0.019008672 -0.3540523 -0.39622152 0.16124782 0.2120023 -0.101416335 0.2295346
-0.021530878 0.12840465 0.04268648 0.08509657 -0.17106561 -0.31099328 -0.023931151 -0.33169127
-0.13767597 0.4684851 -0.07447671 -0.12440558 0.086740315 -0.031198302 0.041689225 0.40688923
-0.4789053 -0.32061353 -0.05885114 -0.14647628 -0.009562767 -0.2574206 0.34913424 0.13080527
-0.14114617 -0.32803464 -0.22325964 -0.12567979 -0.13780807 -0.6977796 0.041857027 0.027243283
-0.17211646 -0.13446718 -0.23406112 -0.025037067 -0.38148993 0.4937502 -0.053587906 -0.21351233
-0.036442157 -0.31932446 -0.24595335 0.26513702 -0.12948662 -0.16906492 0.15398884 -0.4915961
-0.12627287 -0.85126466 0.1706288 0.06286692 -0.17862076 -0.046147894 -0.6205118 0.0799686
0.048716787 0.013403999 0.13508905 0.31369793 -0.087011576 -0.44221112 -0.099159084 -0.049810413
0.22885364 0.07738328 0.050365303 0.1026727 0.17415695 -0.17466092 -0.028226988 -0.28916538
0.35129735 0.11108407 -0.27505204 -0.20454606 0.17043433 -0.38875276 -0.35789886 0.24204336
-0.0034977086 0.178647 0.18131933 -0.0473089 -0.97093874 0.1757777 0.005065821 -0.075244084
0.18108305 -0.13737166 -0.19932894 -0.28288823 0.07593509 -0.016938558 -0.22313802 0.028812056
-0.4406784 -0.23368862 -0.20114264 0.019030474 0.18980664 0.014946222 0.1520148 0.0059671546
0.20497435 -0.40622738 0.14429931 -0.21742593 -0.18342873 0.18266343 -0.0676338 0.2690009
-0.027997004 -0.01961511 -0.5245147 0.079423025 -0.34926707 0.17797595 -0.3989727 0.13973142
0.26913723 0.16548741 -0.19595546 0.018291296 -0.33775702 -0.15093753 0.26891896 -0.43540713
00000000: a3f1 6bbd 33d9 093e 9c04 493e 8f0f 263e
00000010: 8854 3dbd 3af8 0bbe 6f6a 82be b254 94bc
00000020: 7fb6 b3be 3c8b 86be afaf 8ebc 17cf ea3e
00000030: 75ad 52bd a90e e8bd 6388 21be f764 a6be
00000040: ad0e 453e 0ff8 313e d726 d83d 399d 273e
00000050: 7dad 7f3d 76f9 323b f5e0 e03c 6718 08bf
00000060: 0223 2e3e 13b8 9bbc 5846 b5be 8cdd cabe
00000070: 261e 253e 2217 593e 5eb3 cfbd 1e0b 6b3e
00000080: 8661 b0bc 827c 033e 05d8 2e3d 1c47 ae3d
00000090: d32b 2fbe 833a 9fbe 430b c4bc 70d3 a9be
000000a0: eefa 0cbe 47dd ef3e 3f87 98bd 5ac8 febd
000000b0: e8a4 b13d 9593 ffbc 52c2 2a3d c953 d03e
000000c0: 1333 f5be 7527 a4be e50d 71bd e1fd 15be
000000d0: 27ad 1cbc a2cc 83be b9c1 b23e d1f1 053e
000000e0: 9f88 10be 28f4 a7be 2d9e 64be 34b2 00be
000000f0: 8f1d 0dbe afa1 32bf 4672 2b3d 4e2d df3c
00000100: 4c3f 30be c4b1 09be b8ad 6fbe 891a cdbc
00000110: a652 c3be d4cc fc3e fe7e 5bbd faa2 5abe
00000120: 5f44 15bd 7f7e a3be 32db 7bbe 0ac0 873e
00000130: 2498 04be 5b1f 2dbe 40af 1d3e 7cb2 fbbe
00000140: ad4d 01be 7bec 59bf 51b9 2e3e 5fc0 803d
00000150: 5ce8 36be 9305 3dbd dcd9 1ebf 94c6 a33d
00000160: 418b 473d 729c 5b3c c954 0a3e 049d a03e
00000170: 2033 b2bd 7f69 e2be eb13 cbbd 0106 4cbd
00000180: 9c58 6a3e 207b 9e3d d94b 4e3d 1146 d23d
00000190: 3356 323e 50da 32be 493c e7bc 7c0d 94be
000001a0: 3fdd b33e 0b80 e33d 9fd3 8cbe 8674 51be
000001b0: 5686 2e3e 9a0a c7be 853e b7be 37da 773e
000001c0: d039 65bb 3def 363e c6ab 393e fac6 41bd
000001d0: 718f 78bf 12ff 333e 30ff a53b 9219 9abd
000001e0: d66d 393e 28ab 0cbe e31c 4cbe bad6 90be
000001f0: db83 9b3d bbc2 8abc 4b7e 64be 4307 ec3c
00000200: 99a0 e1be 124c 6fbe 56f8 4dbe cce5 9b3c
00000210: ac5c 423e 00e1 743c c5a9 1b3e 1f88 c33b
00000220: cce4 513e 09fd cfbe 33c3 133e e7a4 5ebe
00000230: bed4 3bbe 1f0c 3b3e 9783 8abd 7cba 893e
00000240: f959 e5bc deaf a0bc 9846 06bf 8aa8 a23d
00000250: 22d3 b2be 543f 363e 2646 ccbe c115 0f3e
00000260: 5bcc 893e 8875 293e 8ca8 48be a1d7 953c
00000270: 7dee acbe 5e8f 1abe bfaf 893e afed debe

model.0.bias f4 [32]
-0.360685 0.20803475 -0.045781765 -0.4132826 0.17015378 0.0881616 -0.3101287 0.11551571
-0.18527208 0.015197462 0.09286447 0.0769049 -0.16203138 0.16490251 0.09580396 -0.018512482
-0.08470779 -0.10760916 0.02520868 -0.40269822 -0.037508793 0.09733487 -0.4172963 -0.0673056
0.01769507 0.06821552 -0.2938348 -0.21853232 -0.2578602 0.09668825 -0.27738938 -0.047890197
00000000: b4ab b8be 1007 553e a985 3bbd c799 d3be
00000010: cb3c 2e3e 128e b43d 30c9 9ebe 8093 ec3d
00000020: f7b7 3dbe c7fe 783c ba2f be3d 5180 9d3d
00000030: 8eeb 25be 34dc 283e de34 c43d 7da7 97bc
00000040: 477b adbd 3162 dcbd 6f82 ce3c 762e cebe
00000050: d2a2 19bd 8157 c73d dca7 d5be 85d7 89bd
00000060: 40f5 903c 94b4 8b3d 8471 96be f0c6 5fbe
00000070: 4106 84be 7d04 c63d fb05 8ebe 8328 44bd

model.3.weight f4 [16, 32]
0.11293826 -0.002930674 -0.033079095 0.2140692 -0.2323758 0.037893 -0.022589067 -0.0060174
-0.026995335 0.233486 -0.36435324 -0.03784449 -0.15751839 -0.15099679 -0.026873833 -0.31647196
-0.4047404 -0.26684254 -0.081590936 0.11395359 -0.19702755 -0.39238095 0.35105902 -0.4824485
-0.17875154 -0.0138056725 0.47538713 0.22868659 0.24133532 -0.4214524 0.20825875 -0.29967692
0.096620545 -0.13883762 0.12918565 -0.14574455 -0.25076506 -0.23569056 0.018478908 -0.14129259
-0.012006145 0.41980624 -0.36578184 -0.01489949 -0.15433545 -0.54272515 -0.113630936 -0.2997177
0.084708 -0.21141677 0.16137342 0.21096611 -0.3494999 -0.5542053 0.5111525 -0.044653766
-0.09220169 -0.15443751 0.25236556 -0.029741082 0.3080407 -0.075976394 0.19736864 -0.39048734
0.039064504 -0.022715265 0.1455005 0.034010723 -0.25143957 -0.04184575 0.19617565 -0.08872646
-0.025407126 0.20370583 -0.35710898 0.11492394 -0.19394453 -0.43135095 -0.018612912 -0.2359322
-0.3079076 0.085513376 -0.15954791 0.206219 -0.26385128 -0.40284112 0.25184608 -0.55502445
-0.062608674 -0.016873533 -0.048072062 0.1486342 0.0031144193 -0.19636428 0.26892856 -0.35247365
-0.09899202 0.14247467 -0.26622242 -0.06427286 -0.09039161 0.024633026 -0.23814453 0.13139354
-0.5892681 0.038651988 -0.012352416 -0.039009243 0.29383218 0.096848 0.14775153 0.21515526
-0.0148101235 0.32742333 -0.13869275 -0.3426116 0.31517044 0.21140483 -0.06890167 0.11636994
0.24355045 0.11828819 0.049421728 -0.2854385 -0.03473602 0.09830959 0.044237085 0.22622499
-0.0018795226 -0.08818382 0.07301466 0.31721646 -0.08063323 0.226203 0.10980316 -0.08161755
0.019366372 0.36410058 -0.5940604 -0.41577744 -0.24839683 -0.4681623 -0.050585646 -0.2234553
-0.3621608 -0.1021729 0.07351342 0.0012914459 -0.42153642 0.14462167 0.09620169 -0.50019306
-0.47063538 -0.073782526 0.10230301 -0.019299457 0.105441414 -0.43929628 -0.03274366 -0.081864506
0.117926106 0.026875079 -0.534313 -0.06529166 0.05370161 0.12027582 -0.26081076 0.18217202
-0.5513964 -0.05165301 0.21848674 0.0021305955 0.23666064 0.19269142 0.07878553 0.26457465
-0.0067463857 -0.04267679 -0.16196941 -0.39723086 -0.19132009 0.10914151 -0.1905437 0.22228363
0.2626764 0.09558301 -0.2898874 -0.2213751 -0.028873201 0.057925966 0.1658026 0.20477282
-0.28716776 0.15290184 -0.34965014 -0.21380109 0.26258108 0.087645575 -0.2475685 0.3154293
-0.5133312 0.27477112 -0.064043134 0.14772427 0.34123278 -0.17692432 0.15957649 0.27453694
-0.21718471 0.17924628 -0.31475416 -0.3701895 0.21714838 0.06164759 0.09200375 0.104833506
0.13920958 0.18166208 0.006271928 -0.28363225 -0.23369688 0.48708093 0.053472176 0.116645575
0.12204589 -0.10383044 -0.09484673 0.21825776 -0.05287915 -0.27361023 -0.025710106 -0.16469583
0.066068605 0.6982722 -0.42091137 -0.22671711 -0.12207679 -0.42980072 -0.05399508 -0.16229093
-0.1497821 -0.46535224 0.018005645 0.20133688 -0.5725866 -0.2831358 0.10606035 -0.041244067
-0.15113346 -0.11909622 0.09745144 0.08583424 0.20644042 -0.30887824 -0.18326718 -0.13794786
00000000: 2d4c e73d 8d10 40bb f27d 07bd f534 5b3e
00000010: ecf3 6dbe b135 1b3d b50c b9bc 9c2d c5bb
00000020: 5225 ddbc f416 6f3e 828c babe d302 1bbd
00000030: 804c 21be e79e 1abe 8326 dcbc 9d08 a2be
00000040: 223a cfbe 969f 88be 2619 a7bd 8060 e93d
00000050: 97c1 49be 28e6 c8be 02be b33e 7d03 f7be
00000060: a50a 37be 3031 62bc f165 f33e d12c 6a3e
00000070: 9b20 773e 9cc8 d7be c841 553e 416f 99be
00000080: fee0 c53d 732b 0ebe 3e49 043e 0f3e 15be
00000090: 4764 80be de58 71be 1461 973c 01af 10be
000000a0: 6cb5 44bc d8f0 d63e c247 bbbe fe1c 74bc
000000b0: 1d0a 1ebe 09f0 0abf 56b7 e8bd 9974 99be
000000c0: 637b ad3d a37d 58be 133f 253e 8007 583e
000000d0: a7f1 b2be 66e0 0dbf e4da 023f dee6 36bd
000000e0: 3dd4 bcbd de24 1ebe 0f36 813e 92a3 f3bc
000000f0: 83b7 9d3e 8399 9bbd 011b 4a3e f5ed c7be
00000100: 1a02 203d 5d15 babc 15fe 143e d44e 0b3d
00000110: b0bc 80be 7366 2bbd 45e2 483e 38b6 b5bd
00000120: 9b22 d0bc 4398 503e fdd6 b6be 3e5d eb3d
00000130: 6599 46be 08da dcbe 1b7a 98bc 3698 71be
00000140: 11a6 9dbe a321 af3d 8760 23be 132b 533e
00000150: 8417 87be 3141 cebe f8f1 803e 1516 0ebf
00000160: fa38 80bd 5d3a 8abc 36e7 44bd 9033 183e
00000170: 491b 4c3b b813 49be 01b1 893e 6d77 b4be
00000180: 54bc cabd e1e4 113e 4e4e 88be 7da1 83bd
00000190: 3d1f b9bd 33cb c93c 29dc 73be 078c 063e
000001a0: 46da 16bf 8c51 1e3d ca61 4abc 28c8 1fbd
000001b0: 2c71 963e 3f58 c63d 2d4c 173e a951 5c3e
000001c0: 29a6 72bc 08a4 a73e 7905 0ebe ca6a afbe
000001d0: 055e a13e 827a 583e 521c 8dbd 5d53 ee3d
000001e0: 4a65 793e 1441 f23d 706e 4a3d ff24 92be
000001f0: 5b47 0ebd 8a56 c93d f231 353d 86a7 673e
00000200: 505a f6ba b899 b4bd b688 953d 326a a23e
00000210: 0923 a5bd c2a1 673e 7be0 e03d 1a27 a7bd
00000220: 3aa6 9e3c 646b ba3e 5814 18bf c8e0 d4be
00000230: bd5b 7ebe f8b2 efbe e532 4fbd 77d1 64be
00000240: 246d b9be 0740 d1bd 348e 963d bc45 a93a
00000250: 9fd3 d7be b417 143e 6405 c53d a70c 00bf
00000260: 1ff7 f0be 4b1b 97bd 3e84 d13d e519 9ebc
00000270: abf1 d73d 71eb e0be 371e 06bd 94a8 a7bd
00000280: 3e83 f13d 2029 dc3c bdc8 08bf a2b7 85bd
00000290: 38f6 5b3d 2b53 f63d fd88 85be 4d8b 3a3e
000002a0: 5128 0dbf 1b92 53bd fdba 5f3e 76a1 0b3b
000002b0: 2b57 723e e650 453e 4f5a a13d 5476 873e
000002c0: c910 ddbb dccd 2ebd 4fdb 25be d861 cbbe
000002d0: 6ae9 43be 9685 df3d e31d 43be 529e 633e
000002e0: 857d 863e 06c1 c33d 1f6c 94be 27b0 62be
000002f0: 7e87 ecbc c743 6d3d 28c8 293e f7af 513e
00000300: a707 93be 4d92 1c3e 5805 b3be acee 5abe
00000310: 0771 863e 867f b33d 9982 7dbe f37f a13e
00000320: ac69 03bf cdae 8c3e 0c29 83bd 0845 173e
00000330: 10b6 ae3e a62b 35be 0568 233e 1b90 8c3e
00000340: ab65 5ebe 568c 373e 7527 a1be 7a89 bdbe
00000350: 255c 5e3e 2f82 7c3d 766c bc3d f3b2 d63d
00000360: f58c 0e3e a005 3a3e bf84 cd3b 3f38 91be
00000370: 3c4e 6fbe ac62 f93e a405 5b3d e0e3 ee3d
00000380: 32f3 f93d 0ea5 d4bd 013f c2bd f67e 5f3e
00000390: cf97 58bd a416 8cbe 009e d2bc 06a6 28be
000003a0: fa4e 873d f8c1 323f b281 d7be 8828 68be
000003b0: 6503 fabd d70e dcbe f229 5dbd 982f 26be
000003c0: 7b60 19be a642 eebe 9380 933c 412b 4e3e
000003d0: 0995 12bf 2df7 90be 2b36 d93d 8aef 28bd
000003e0: bbc2 1abe b8e8 f3bd 9f94 c73d ddc9 af3d
000003f0: 1e65 533e 4a25 9ebe 64aa 3bbe 3442 0dbe

model.3.bias f4 [16]
0.07035673 0.09738409 0.06212751 0.09056077 0.07666779 0.04589334 -0.01145205 0.06854356
-0.0057481234 0.02455729 -0.09448792 0.04557332 0.089675434 0.0099120345 0.04292194 0.025892816
00000000: 3017 903d 4f71 c73d 6a79 7e3d ed77 b93d
00000010: 0104 9d3d a8fa 3b3d 61a1 3bbc 9160 8c3d
00000020: c15a bcbb 5f2c c93c e282 c1bd 17ab 3a3d
00000030: c1a7 b73d 1666 223c ebce 2f3d 2c1d d43c

model.6.weight f4 [8, 16]
-0.40398657 -0.53770995 -0.5971281 0.0034432393 -0.760389 0.002782404 0.0010432685 -0.16676074
-5.2393684e-08 0.0017004224 0.007820773 0.0064167352 -0.29154152 0.004386423 0.02700853 -0.3203538
0.40015498 0.039900154 0.08653485 -0.15688846 0.20443748 -0.305139 -0.40539134 0.16477802
9.360667e-15 -0.54722834 -0.310612 -0.4577732 0.47248298 -0.2134389 0.23134078 -0.24572219
0.09504949 0.06675984 0.33024803 -0.2674506 0.33151126 -0.21583034 -0.56092554 0.290085
-0.0021644833 -0.24900001 -0.29269227 -0.52096075 0.38611007 -0.47799715 0.2310415 -0.37017012
-0.14261362 -0.0241731 0.14369938 -0.31020564 0.26768222 -0.26795974 -0.35055518 -0.006854823
0.00031298728 -0.007961352 -0.2523691 -0.23847567 -0.29087204 -0.2870258 -0.050717242 0.4967744
-0.3573114 -0.5118626 -0.41906694 0.033037934 -0.39459026 0.040777877 0.028716369 -0.121320486
-0.00047578858 0.018640252 0.020896604 0.030827736 -0.36597043 0.023464652 0.08320616 -0.6057512
-1.488206e-39 1.2281537e-36 2.4290392e-12 3.58228e-05 5.449839e-05 -3.1070958e-06 -9.16865e-09 -1.238344e-39
8.6895845e-30 -1.4794524e-21 -3.1082325e-23 -1.4524709e-26 -2.548592e-24 -5.217213e-15 5.150021e-39 -7.1580214e-11
-0.10893358 0.46332616 0.0013629129 -0.044554327 -0.0025589212 -0.23765025 -0.42031646 0.41163358
-1.2444004e-05 -0.19101393 -0.23883863 -0.4433292 0.44055545 -0.37621573 0.06787078 -0.22312656
0.24515603 0.046175584 0.005451196 -0.11096045 0.363437 -0.28532425 -0.17923163 0.21077743
0.00030919025 -0.10255082 -0.1446673 -0.31640762 0.036648884 -0.26071274 0.011457822 0.12960865
00000000: 54d7 cebe 5ca7 09bf 63dd 18bf f8a7 613b
00000010: daa8 42bf fe58 363b 48be 883a 54c3 2abe
00000020: 7707 61b3 b5e0 de3a b322 003c 7a43 d23b
00000030: ee44 95be fcbb 8f3b fe40 dd3c 6a05 a4be
00000040: 1de1 cc3e 586e 233d 2f39 b13d 5ea7 20be
00000050: 0f58 513e 2e3b 9cbe 748f cfbe 92bb 283e
00000060: 75a0 2828 2817 0cbf 8908 9fbe 4061 eabe
00000070: 4ae9 f13e ba8f 5abe 99e4 6c3e 999e 7bbe
00000080: 4fa9 c23d 62b9 883d 4516 a93e 49ef 88be
00000090: d8bb a93e a102 5dbe d198 0fbf 0586 943e
000000a0: 01da 0dbb dcf9 7ebe c3db 95be af5d 05bf
000000b0: 38b0 c53e 0bbc f4be 2596 6c3e f086 bdbe
000000c0: 4e09 12be aa06 c6bc ee25 133e 46d3 9ebe
000000d0: a50d 893e 0532 89be f87b b3be 6c9e e0bb
000000e0: 7118 a439 5570 02bc 8636 81be f732 74be
000000f0: 2eed 94be 0cf5 92be e2bc 4fbd 3759 fe3e
00000100: 85f1 b6be 6d09 03bf f18f d6be c952 073d
00000110: bc07 cabe b406 273d 973e eb3c e076 f8bd
00000120: 4373 f9b9 71b3 983c 5b2f ab3c 738a fc3c
00000130: 7a60 bbbe f138 c03c fe67 aa3d 8312 1bbf
00000140: 8334 1080 a3f5 d003 aeed 2a2c 7040 1638
00000150: 3395 6438 8083 50b6 2684 1db2 007c 0d80
00000160: e73e 300f 8b91 df9c 0e4e 169a 83d8 8f94
00000170: 1130 4598 4cf8 bba7 2a14 3800 1468 9dae
00000180: 9218 dfbd 1639 ed3e c5a3 b23a 997e 36bd
00000190: 93b3 27bb 965a 73be b833 d7be a3c1 d23e
000001a0: 97c6 50b7 2899 43be 1d92 74be 0bfc e2be
000001b0: 7c90 e13e 599f c0be d6ff 8a3d 4a7b 64be
000001c0: 2f0a 7b3e 9c22 3d3d f29f b23b 3b3f e3bd
000001d0: 6a14 ba3e 0516 92be 7f88 37be 0ad6 573e
000001e0: d01a a239 2a06 d2bd aa23 14be 2e00 a2be
000001f0: 241d 163d 247c 85be 97b9 3b3c 21b8 043e

model.6.bias f4 [8]
0.22502984 0.26658422 0.32533386 0.29426482 0.16905104 -0.00017212247 0.38135245 0.42374012
00000000: 396e 663e ba7d 883e 2992 a63e e1a9 963e
00000010: b71b 2d3e c67b 34b9 a140 c33e 77f4 d83e

model.9.weight f4 [3, 8]
1.044e-42 -8.84e-43 -4.345e-42 3.3375e-41 1.2938e-41 -1.036807e-39 -3.45e-43 1.037e-42
-0.52336866 0.94637966 0.7488188 0.22496632 -0.32222745 6.7360808e-15 0.6492865 0.4530585
-0.5853631 0.36944675 0.4381808 0.94590986 -0.4310278 9.150778e-12 0.529869 0.5576287
00000000: e902 0000 7702 0080 1d0c 0080 095d 0000
00000010: 1124 0000 324a 0b80 f600 0080 e402 0000
00000020: 7dfb 05bf f045 723f 97b2 3f3f 925d 663e
00000030: fffa a4be 61b1 f227 a437 263f 49f7 e73e
00000040: 5bda 15bf 2028 bd3e 3c59 e03e 2627 723f
00000050: adaf dcbe 71fb 202d 7fa5 073f c1c0 0e3f

model.9.bias f4 [3]
1.073e-42 -0.29101035 -0.24175964
00000000: fe02 0000 4fff 94be d78f 77be
