hyperFakeWorker/models/hyperfaas-thumbnailer-json.onnx (onnx, 4714 bytes, 8 tensors)

model.0.weight f4 [32, 5]
00000000: a117 14bd 0f69 8c3e aee3 083e 0b61 6a3e
00000010: 97d0 a6bd 4372 44be 41b1 37be 705c 91be
00000020: 0748 a3be d23b 0abe d106 2cbe f8d8 b93e
00000030: dea0 e03d 1dd1 133e 2276 743d 7f49 cdbe
00000040: b5d8 853b 44d0 323e 0f21 473e 0d87 143e
00000050: d493 2a3e 177f a2bb fc67 4bbd 6d62 12bf
00000060: 8fb6 ad3e abfc 66be c42e 633e def4 64be
00000070: f61f af3e 8084 863e 4589 1ebd 59d7 0a3e
00000080: 76bf eebd c3ba 503e db0a 163e dc1b 3bbd
00000090: 4d21 2ebd 4b98 d5be e918 78be a225 c9be
000000a0: 2f89 2abe 062b e03e bc8f 2e3e 94dc 4ebe
000000b0: a42d c43d a072 29be f56b fabe d1d2 da3e
000000c0: ec42 04be 4321 b5be 1afb 13be 3ce0 49be
000000d0: 9023 1fbb 18d6 68be 7ad1 a83e 0c81 bd3d
000000e0: 183b 3abe 3462 bbbe a90a ecbe d6cf 5fbe
000000f0: bf14 9a3d 262c 27bf a4c0 8c3e beea 1dbe
00000100: 9a42 75be 947d 8dbd 8b65 62be 7585 f1bd
00000110: 0621 c8be 46e3 fe3e 5638 9d3e 9cf3 953d
00000120: 9836 a4bd a413 32bf 505c b93d bf54 e83e
00000130: d4dc d4bd 9351 3bbe 81a1 b4be 6f33 46be
00000140: 291c 2abe 98bc c7be 8035 ba3e 4740 95bd
00000150: 61f1 a1be 490c cbbd 7ada 88bd f9bf a13d
00000160: 33f2 153c ed6e 313e 5120 8ebe 1cc0 b83e
00000170: 2343 793d 7f90 59be f671 943e 2a25 94bd
00000180: ef3f 1c3e 0249 0dbc 21ea 323e 22eb e73d
00000190: 514e b13e f539 01bf 347e dfbd e1fa 32be
000001a0: e177 523d 09d7 943d a3ba 13bf 5dc8 dfbc
000001b0: 0cac 42be 36aa b5ba 213f febe d89b 733e
000001c0: 166b 86be a98b 703e 501d 803c cfbb 813e
000001d0: 4e36 4dbf ac7e 003e 9b8f 46be 66ed d0bd
000001e0: 9719 993e 2172 f4be 1a9c eabd eabb 0ebe
000001f0: 2f94 86bc f6e0 723d 267c 38bf 9cc6 0d3d
00000200: 0d72 6ebe 6f23 fbbc b9a1 bbbd c99d 0bbe
00000210: 408c 983d 26a7 26bd 4c42 543e f8f9 d43c
00000220: acc1 b93e a6a0 55bb f557 a8bc e686 4ebc
00000230: 0f44 62be b950 823e 8ec6 e63d 0d4a 7f3e
00000240: fbab d9be 629b 3f3e d61c 58bf 9be1 0c3e
00000250: abaf 38be 3c9a 0fbe 9446 c6be 80cc db3c
00000260: 96c7 a53e f74d 1a3e ea91 0cbe ed56 3bbc
00000270: ad32 99be 8067 edbe 7d2d b13e 4f59 2bbe
-0.036155347 0.27423903 0.13368103 0.22888581 -0.08145254 -0.19184212 -0.17938711 -0.28390837
-0.3189089 -0.13499382 -0.16799475 0.36298347 0.10968183 0.14435239 0.059682973 -0.40095136
0.0040846714 0.1746226 0.19446205 0.14504643 0.16657954 -0.004958998 -0.049659714 -0.57181436
0.33928344 -0.22557323 0.22185808 -0.22359034 0.34204072 0.26272964 -0.03870513 0.13558711
-0.11657612 0.20383744 0.14652579 -0.045680866 -0.042512227 -0.41717753 -0.24228252 -0.39286524
-0.16653894 0.43782824 0.17047018 -0.20201331 0.09579018 -0.16547632 -0.4891049 0.42738965
-0.12916154 -0.3537694 -0.14451256 -0.19714445 -0.0024282672 -0.2273792 0.32972318 0.09253129
-0.18186605 -0.3659836 -0.46101883 -0.21856627 0.07523488 -0.6530174 0.27490723 -0.15421578
-0.23951188 -0.06908718 -0.22109048 -0.11793033 -0.39087695 0.4978277 0.30707043 0.073218554
-0.080182254 -0.6956122 0.0905081 0.45377156 -0.10393682 -0.18292837 -0.35279468 -0.19355558
-0.16612305 -0.39011073 0.36368942 -0.072876506 -0.3162947 -0.099144526 -0.06682296 0.07897944
0.009151983 0.17327471 -0.2775903 0.36084068 0.060855042 -0.21246527 0.28993195 -0.07233651
0.15258764 -0.008623363 0.17472126 0.11324145 0.34630063 -0.5047906 -0.10912743 -0.17478515
0.051383857 0.07267577 -0.5770666 -0.02731722 -0.19010943 -0.0013859931 -0.4965754 0.23789918
-0.26253575 0.23490776 0.015638977 0.253386 -0.8016099 0.12548321 -0.19390719 -0.1020153
0.29902336 -0.47743323 -0.11455555 -0.13938871 -0.016428081 0.05929657 -0.72064435 0.034613237
-0.23285694 -0.030656544 -0.091617055 -0.13634409 0.074486256 -0.04068675 0.20728415 0.0259981
0.36280572 -0.0032596975 -0.020549754 -0.0126054045 -0.22096275 0.25452211 0.1126834 0.24930592
-0.42514023 0.18711618 -0.84419 0.13757937 -0.18035762 -0.1402368 -0.38725722 0.026830912
0.32378834 0.15068804 -0.13727537 -0.011434299 -0.29921475 -0.46368027 0.34605017 -0.16733287

model.0.bias f4 [32]
00000000: acaa 8fbe 1bf3 6c3e 8084 3fbe f47a 9dbe
00000010: e3bf 7e3d 05f8 57be 9d48 62be ba02 e3bc
00000020: da49 3abe 8950 aabd b00d b83d d89c 37bd
00000030: 6dbf c4bc ef6b a13e 9f80 023e 050a 7a3e
00000040: 6a77 90bd 89ef 28be ce9c 03be 1de5 c7be
00000050: 0844 013e 8be3 443d 83e4 b3bb 1447 123e
00000060: f97a 3b3e 1c22 0c3e d034 c8bd d7c7 59be
00000070: c324 cebd f1cf 6d3e bef3 bebd 7c7b 9cbc
-0.280599 0.23139612 -0.18702888 -0.30757868 0.062194716 -0.21090706 -0.22098012 -0.027711261
-0.18192235 -0.08316142 0.08986986 -0.044827312 -0.02401706 0.3152766 0.12744378 0.24417885
-0.070540264 -0.16497625 -0.12852785 -0.39041987 0.12623608 0.048068564 -0.005489887 0.14284927
0.18308629 0.13684887 -0.09775698 -0.21267639 -0.100656055 0.23223855 -0.09323834 -0.01910185

model.3.weight f4 [16, 32]
00000000: 2530 433d 8a54 6abc d81d 8cbc b8e2 b53d
00000010: 4a41 1ebf 4c47 c53d 98e9 debd abcc 03bd
00000020: 99bd 08bd 93e8 c0be a99c 0fbf 0764 75bc
00000030: c57c f9be feb7 bcbe b0ae f2be 00a5 f2be
00000040: 26ed cfbe c7aa dcbd 6fec 08bd f255 ef3d
00000050: 40c4 a2be 2191 eebd b59a 3e3e 3e11 1dbf
00000060: b8c9 d8be 3c41 0abe 2c6d 583e 28ec 8ebd
00000070: 1739 27be f1fe 22bf 8928 c83d 16e3 f8be
00000080: 6436 153e 0edb 64bc c08a 0d3d 991d 9ebe
00000090: 8c11 14bf 6f76 d83d a8cf f73d d037 37bc
000000a0: 4eb3 28bc 2374 c5be cf95 53be d49a 373a
000000b0: 696b 3ebe c83f c5be 12aa c5be db20 99be
000000c0: c2ee 15be 4653 4b3d b412 a23c 6b09 823e
000000d0: 8976 43be 0b4c 04bc 0cc7 9f3e f70e b4be
000000e0: cb9f 40be ddbe dbbd 1194 453e 330d a7bd
000000f0: 2e71 b83d 1640 06bf d96c 1d3e 3677 21be
00000100: d00a f33c 7e82 f9bc d130 f63c 97ca 52bd
00000110: 1962 45bf 4238 08bb 48da 543e 0772 52bd
00000120: 665d 2bbe 3813 ccbe b012 78bd 5b21 d2bc
00000130: aa89 d5be 80b9 52bf ef1e 0ebf 711d 00bf
00000140: 5121 e9be ea58 d13e 7b1d 1fbe 4236 e23d
00000150: 3c5a ddbe 0e46 a2bc 84f7 8c3e 9ac2 2ebf
00000160: 84f7 d9be e246 c0bd 810a febc 6ab3 fbbc
00000170: 2af6 17bf 0d1a 16bf 193b ed3d 0b0b f8be
00000180: d929 8cbe 0473 b93b 6c1f 1bbe 6b4a 9ebd
00000190: 406e 86bd ea6a febc 3f3a 41bd 5765 fcbc
000001a0: 053c 83bd 3a82 873e 6390 c23e 0c13 b2bd
000001b0: 195c 603e a639 463e 1dbb 36bd a668 113e
000001c0: 81aa c13d cf19 8a3e 5a00 743d 1d13 7dbe
000001d0: d4e8 0f3f cbb5 8c3c 3b25 843c 9022 b23e
000001e0: f661 0d3f 98d7 b0bd 27ce 633e 1da0 4cbd
000001f0: 349f 65be 30c4 413e 5aab a6be aeac 133e
00000200: c1a8 04bd 6d66 80bc 3616 ed3c 026d 693e
00000210: 0063 12bf d981 093e 4c65 873d ce66 d2bc
00000220: cdb1 a9bd fd9a 85be 3c7e dabe 8a19 d0bc
00000230: 471f febe 4a6a 3fbf 1f28 f3be 641f e3be
00000240: 50d5 89be b1c0 0f3e b8cc c2bd eecd 20be
00000250: cdc6 c7be c69f d9bd 6e7a 313b b425 0cbf
00000260: 749a 34bf 39b3 02be 2608 20bd 2a12 0bbe
00000270: 535f 4dbe a52c 24bf 4e0e 9ebd a61e e8be
00000280: c6c9 643e 1cfb c7bd 1d51 27be f691 45bd
00000290: 4165 8ebc 8355 dfbc c26a 1dbe 38d9 973c
000002a0: 11bf 8dbe 9997 803e 3e04 763e 78aa ddbd
000002b0: ec06 a73e efd1 143e 848e 7ebc c088 103d
000002c0: 7386 943e 7c1b a9be a3e3 72be d29e 13be
000002d0: ff5e 18bc d49e f63c 236b 633d 6b93 393e
000002e0: bf63 333e 5905 7dbd 7f84 bebe edcb 45be
000002f0: ab5b f73e 98b9 ad3e ce48 043e 6f2d d33e
00000300: 0903 b3bd ce60 6a3e 15be 6fbd 7f6f cebd
00000310: ccc6 e63e 31b5 afbe 8f19 bcbe 112b 7f3e
00000320: 2812 c7bc 8eff d83e 0974 5c3e fe09 b73e
00000330: 2f9d 613e e238 42be 960e 90bc 076f 8b3d
00000340: d750 213e fc1a fcbc 039e f5bc 1cae 42be
00000350: d381 9e3e 2b88 8c3e ff96 2d3d 1864 5a3e
00000360: 9811 9e3d 360e 9f3e 90a1 c93d 2f48 90bd
00000370: 44f1 0bbe 193a d53e 7f7f 013d d276 63be
00000380: f832 02bd c876 57bc 1964 51be 1e0d d3bd
00000390: 70f8 c1bb 472a ccbd 8c61 eabd 2842 aebb
000003a0: a67a 0ebc 006e 203e d70c 113e ee87 3b3d
000003b0: 8e25 b23d d97b fcbc df7b 0a3e c0be f1bc
000003c0: 0b31 693d 5c75 5e3c 1e60 373d 2ae4 f6bd
000003d0: 0a13 ebbd 7b23 233e 4f0a 913c 1131 773e
000003e0: b762 893d 34aa df3d 271d c9bd bac6 44bd
000003f0: 7013 f43d a56b 24bf 2b4f 093b 845e bbbd
0.047653336 -0.014302382 -0.017104074 0.08881134 -0.61818373 0.096327394 -0.10884398 -0.03217761
-0.03338394 -0.3767744 -0.5609842 -0.014977462 -0.48728004 -0.36859125 -0.473989 -0.4739151
-0.40610617 -0.10774761 -0.033428606 0.11686315 -0.31790352 -0.11648775 0.18613704 -0.61354434
-0.423414 -0.13501447 0.21135396 -0.06978637 -0.16330372 -0.6367026 0.097733565 -0.48610753
0.1457153 -0.013968242 0.03455615 -0.30881956 -0.57839274 0.105694644 0.12100154 -0.01118274
-0.010296656 -0.38565168 -0.20662616 0.0007003967 -0.18595661 -0.38525224 -0.38606316 -0.2990788
-0.1464186 0.049639963 0.019784309 0.2539781 -0.19088186 -0.008074771 0.31206548 -0.35167667
-0.18810956 -0.10729764 0.19294764 -0.081568144 0.09005962 -0.5244154 0.15373553 -0.15768132
0.029668242 -0.030457731 0.030052574 -0.051462736 -0.7710281 -0.0020785485 0.20786393 -0.051378276
-0.16734847 -0.39858413 -0.060564697 -0.02565067 -0.41706592 -0.823143 -0.5551595 -0.50044924
-0.4553323 0.4088815 -0.1553859 0.11045505 -0.43232906 -0.019808795 0.2753259 -0.6826569
-0.42571652 -0.0938852 -0.031010868 -0.0307252 -0.5935999 -0.586335 0.115835376 -0.48445925
-0.27375677 0.005659463 -0.15148705 -0.07729038 -0.06563997 -0.03105684 -0.04717469 -0.030810041
-0.06407932 0.26466542 0.38000783 -0.08695039 0.21910132 0.19357929 -0.04461204 0.14200076
0.09456349 0.26972815 0.059570648 -0.24714322 0.5621464 0.01717653 0.016131034 0.34791994
0.552276 -0.08634871 0.2224661 -0.049957383 -0.22424012 0.18922496 -0.32552606 0.14421341
-0.0323875 -0.01567384 0.028941255 0.2279549 -0.5718231 0.13428439 0.06611118 -0.025683787
-0.08285866 -0.2609481 -0.42674434 -0.025402803 -0.49633238 -0.7477156 -0.47491547 -0.44359887
-0.26920557 0.1403835 -0.09511703 -0.15703556 -0.3901886 -0.106261775 0.002708103 -0.5474503
-0.70548177 -0.1276368 -0.03907027 -0.13581148 -0.20055895 -0.6413062 -0.07717572 -0.45335883
0.22342595 -0.09764692 -0.16339536 -0.048234902 -0.017382266 -0.027262455 -0.15372756 0.018536195
-0.27684835 0.2511566 0.24025056 -0.1082353 0.32622468 0.14533208 -0.015536908 0.035286665
0.29008827 -0.3302878 -0.23719649 -0.14416054 -0.009299993 0.030105032 0.055522095 0.18122642
0.17518519 -0.061772678 -0.37210461 -0.19316073 0.48312125 0.3393066 0.12918398 0.412456
-0.08740813 0.2288849 -0.058530886 -0.1007986 0.45073545 -0.34317926 -0.3673825 0.24918772
-0.02430065 0.42382473 0.21528639 0.3574981 0.22032617 -0.18967012 -0.01758508 0.06808286
0.15753494 -0.030774586 -0.029982572 -0.1901173 0.30958423 0.27447638 0.04238033 0.21327245
0.077181995 0.3106553 0.09845269 -0.07045018 -0.13666254 0.41645887 0.03161573 -0.22213295
-0.03178689 -0.013150878 -0.2044834 -0.10305236 -0.0059195086 -0.09969001 -0.11444387 -0.005317945
-0.008696234 0.15666962 0.14165054 0.04578393 0.08698569 -0.030820774 0.13523816 -0.029509902
0.056931537 0.013577785 0.0447694 -0.120552376 -0.11478241 0.15931503 0.01770511 0.24139811
0.067082815 0.109211355 -0.098200135 -0.048041083 0.1191777 -0.6422675 0.0020951729 -0.09148887

model.3.bias f4 [16]
00000000: 43e5 0b3e d8f7 873d abef 203e a882 9e3d
00000010: fe01 443e 2cf0 163b 6308 c53c ec27 a53d
00000020: b01f 203d d4fc 153e 6863 bcbc 569f d33d
00000030: ca78 3f3e 1ecc 11bd 2232 b83d 15dd dd3b
0.13661675 0.06639069 0.15716426 0.077397645 0.19141385 0.0023031337 0.02405185 0.08064255
0.03909272 0.14647228 -0.02299662 0.10333125 0.18698421 -0.035595052 0.08993937 0.00677074

model.6.weight f4 [8, 16]
00000000: 4188 cdbe 4ba6 cfbe 046c babe 49df 0d3d
00000010: a43a 8cbe e069 fe3c 439d 663c 7353 dc3c
00000020: 757a 0cbf 8e4a 5a3b df12 163c 557e 8d3c
00000030: a700 4abe bdb6 173b 0178 2bbd 059f bfbe
00000040: dd05 19be ad73 1bbe 3181 18be 4885 57bd
00000050: 3946 c2bd db54 94bd 4266 4bbd 0b9b 853c
00000060: 1bf4 15bd 7bf5 1ebd 64cb 2fbd 9e7d 5fbd
00000070: a005 38bd bd4b 2ebd 7967 c33e 5bb8 1cbe
00000080: e71a 473e 6df5 da3d e607 063f d1eb 42bf
00000090: 160d d33e 3bc6 803e 7561 5ebf 4d1a d83b
000000a0: 05c0 57be 3968 2fbf 39d1 afbe ca21 47bf
000000b0: bb41 be3e ec5c 5bbe 8563 9dbe bb63 9fbe
000000c0: 610c 9fbd cb80 3dbc 73b2 9a3e 47d4 68be
000000d0: c629 cc3d b6dd bbbe 13c6 f8bc f002 063e
000000e0: b596 563e 1821 f4be 7a09 8ebe d211 0dbf
000000f0: 3723 67bd f478 18be 348d 21bf df55 a23e
00000100: b4dc 9bbe 0cac b6be 19dd 99be 9001 273d
00000110: a495 56be 3eb2 923d c4f1 1f3d 1afd fe3d
00000120: 49ec ffbe 28ae 2e3d 53c7 283d e669 263d
00000130: 5d92 84be 9b7c 223d 2413 8fbd adb1 09bf
00000140: 04b8 263e 0e95 d739 15e6 bf3e 558b 283d
00000150: f6d4 e43e 3959 e3bd 8171 bcbd cde8 91be
00000160: f170 60bd c119 36be 5974 08be 3c03 04be
00000170: c1e4 0cbd 94bb 86be 5cf7 f0bd f75f 5cbe
00000180: 38df cc3d 6c7c c73e 643b 333e 8fb2 b33b
00000190: b393 903d e5ea e13d 56ea 3cbe 28fd 74be
000001a0: fb62 31be 4235 5bbe df2d 25be 1e6f 7cbe
000001b0: 29f6 ec3e ea07 a1be 5aa1 2ebe fbd3 3fbe
000001c0: 7101 f43e d684 633d bef5 183e 6591 b5be
000001d0: f4c4 c23e ff69 e0be 551c cebe 7ba9 4ebb
000001e0: 7da5 0cbe e467 88be 4d26 b2be ccf1 efbe
000001f0: 4e7b 103e e0a2 1ebf 6841 07bf 9f03 03be
-0.40143016 -0.4055656 -0.36410534 0.03463677 -0.2738849 0.031056345 0.01407558 0.02689526
-0.54874355 0.0033308598 0.009159773 0.017272154 -0.19726811 0.0023149692 -0.04186249 -0.3742601
-0.14943643 -0.15180846 -0.14893033 -0.05261734 -0.0948605 -0.072427474 -0.049658068 0.016309282
-0.03660975 -0.038808327 -0.042918578 -0.054563157 -0.04492724 -0.0425527 0.3816488 -0.15304701
0.19443856 0.106913425 0.523558 -0.7614108 0.4122092 0.25151238 -0.8686746 0.006594932
-0.21069343 -0.68518406 -0.34339312 -0.77785933 0.37159523 -0.21422166 -0.3073999 -0.31130776
-0.07766033 -0.011566351 0.3021427 -0.22737227 0.09968905 -0.3669259 -0.030367887 0.13087058
0.20955928 -0.476815 -0.27741605 -0.55105317 -0.056430068 -0.1488989 -0.63106084 0.3170614
-0.3044182 -0.35678136 -0.30051497 0.040772974 -0.20955521 0.07162903 0.039048925 0.12450619
-0.4998496 0.042646557 0.041205715 0.040628336 -0.25892916 0.039669614 -0.06986073 -0.53786737
0.16281134 0.0004111905 0.37480226 0.041148502 0.44693726 -0.11101002 -0.09201337 -0.28497925
-0.05479521 -0.17783262 -0.13325633 -0.12891859 -0.034397844 -0.26314986 -0.1176593 -0.21520983
0.10003513 0.38962114 0.17503124 0.0054839323 0.070594214 0.11031131 -0.18448767 -0.23924696
-0.17322914 -0.21407035 -0.1613078 -0.24651763 0.46281555 -0.3145135 -0.17053738 -0.18733208
0.4765735 0.055546604 0.14937493 -0.3546249 0.38040888 -0.4383087 -0.4025599 -0.0031534124
-0.13735004 -0.26641762 -0.34794846 -0.46864164 0.14109537 -0.6196728 -0.52834177 -0.1279435

model.6.bias f4 [8]
00000000: cdbd 563e a2eb 6b3d d55c bf3e 418d 823e
00000010: d99b 353e 0dba e73e 5358 fd3e 5bc7 c13e
0.20970841 0.057597764 0.37375513 0.25498393 0.17735232 0.45259133 0.4948145 0.3784741

model.9.weight f4 [3, 8]
00000000: e01f 9030 62be 78b2 ec39 5431 21ee 19b2
00000010: e0d0 29b2 eb2b 4232 222d 3eb1 2cea 1031
00000020: 12d1 b8be 71ab 71be 6743 7e3f 6476 933e
00000030: a721 32be 27f9 1f3f 5db5 203f 9ec3 4b3f
00000040: b4aa f9be 076b a6be c998 dc3e 7ce1 643f
00000050: 797a 83be 18a1 1a3f 1e13 c93e a649 263f
1.0486438e-09 -1.4478788e-08 3.0882985e-09 -8.959916e-09 -9.884587e-09 1.1302272e-08 -2.7674294e-09 2.108787e-09
-0.36097008 -0.23600556 0.993216 0.28801262 -0.1739565 0.6248955 0.6277674 0.79595363
-0.4876305 -0.3250353 0.43085316 0.8940656 -0.25679377 0.6040206 0.39272398 0.6495613

model.9.bias f4 [3]
00000000: 8c04 7f31 55cd 8bbe d92c 1ebe
3.7109968e-09 -0.27305093 -0.15446796
