hyperFakeWorker/models/hyperfaas-echo.onnx (onnx, 4714 bytes, 8 tensors)

model.0.weight f4 [32, 5]
0.030429022 0.36500815 0.1349921 0.1528879 0.01529011 -0.21434428 0.008099762 0.15130411
-0.59564716 -0.3172991 -0.0052432073 0.50034356 0.061728552 0.026778368 -0.3596064 0.013204024
0.19134158 0.20495865 0.16123086 0.019287474 0.08524798 -0.039525837 0.102478854 -0.7208204
-0.15468818 -0.088437624 -0.77350533 -0.16234398 0.31145754 -0.13615276 0.054189246 0.3743335
0.09235959 -0.010005971 0.11322179 0.0022950722 -0.15475048 -0.39792547 0.28722653 -0.06121606
-0.003826039 0.53901416 0.10472514 0.011876795 0.08748002 -0.02341113 -0.08386967 0.2942562
0.031019615 -0.5085405 -0.012106025 -0.5919619 0.036165826 0.049552705 0.003985407 0.0956017
-0.07864373 -0.2607368 -0.23168434 -0.58065 -0.02538299 -0.6940784 0.15757656 -0.020146234
-0.20684615 0.0024900453 0.25061458 -0.27306572 -0.73980594 0.120102406 0.14359562 0.030335918
-0.37058738 -0.73067784 -0.23507522 0.07418891 -0.5321189 0.013775316 0.20325129 -0.40621307
-0.013390012 -0.45424768 0.30231047 -0.1620159 -0.051292207 -0.0004107475 -0.3409339 0.2574036
-0.18734974 0.0028232913 -0.011208342 0.35924608 0.069050364 -0.29789805 0.105015054 0.033840846
0.4309094 0.15525904 -0.033757288 0.1799105 -0.06420352 -0.48794034 -0.14150225 -0.090794094
0.057240587 0.016478986 -0.364125 0.08966822 0.17279913 -0.50223076 -0.014459471 0.38266504
0.112453625 0.08730178 -0.014388977 -0.008615129 -0.63811857 0.13321987 0.057388768 -0.28510717
0.09715363 -0.4107407 -0.0090925535 0.24650562 -0.3668173 0.008213552 0.010702768 0.117170036
-0.5738249 -0.26277047 0.06790736 0.2999094 0.14293425 -0.113507204 0.13988167 0.11400627
0.117295854 -0.1775628 -0.31432745 -0.4721878 -0.010659602 0.48116866 0.05287689 0.10155753
-0.3853311 -0.0149025405 -0.4353566 0.30688617 -0.15992132 -0.028469255 -0.0013358312 0.3031562
0.33547586 0.009571074 -0.43602493 -0.01446553 -0.07924119 -0.42108032 0.30100372 -0.011606182
00000000: 4946 f93c 59e2 ba3e 5e3b 0a3e a58e 1c3e
00000010: 5f83 7a3c 117d 5bbe ddb4 043c 77ef 1a3e
00000020: 557c 18bf 0775 a2be 36cf abbb 8416 003f
00000030: 14d7 7c3d 4f5e db3c 541e b8be b155 583c
00000040: 0cef 433e aee0 513e b419 253e c400 9e3c
00000050: 7e96 ae3d d8e5 21bd 6fe0 d13d b087 38bf
00000060: 9466 1ebe c91e b5bd 7204 46bf 803d 26be
00000070: 5d77 9f3e a16b 0bbe 8bf5 5d3d a4a8 bf3e
00000080: 0627 bd3d 16f0 23bc d3e0 e73d ec68 163b
00000090: e976 1ebe e3bc cbbe 5b0f 933e b1bd 7abd
000000a0: 48be 7abb d5fc 093f 227a d63d e496 423c
000000b0: ba28 b33d b3c8 bfbc ddc3 abbd c0a8 963e
000000c0: d91c fe3c b62f 02bf 5958 46bc d18a 17bf
000000d0: 9e22 143d c7f7 4a3d 0498 823b d3ca c33d
000000e0: f70f a1bd 4b7f 85be a93e 6dbe 7aa5 14bf
000000f0: fdef cfbc 1faf 31bf c05b 213e b709 a5bc
00000100: 7acf 53be 0730 233b 8e50 803e 45cf 8bbe
00000110: ec63 3dbf 40f8 f53d bb0a 133e 0883 f83c
00000120: a1bd bdbe b40d 3bbf 8fb7 70be 5bf0 973d
00000130: f238 08bf ddb1 613c 1b21 503e 29fb cfbe
00000140: c861 5bbc 2793 e8be 70c8 9a3e 7fe7 25be
00000150: c717 52bd 9959 d7b9 e38e aebe 68ca 833e
00000160: 9cd8 3fbe f806 393b 32a3 37bc 1aef b73e
00000170: 476a 8d3d 1886 98be 2212 d73d b39c 0a3d
00000180: 28a0 dc3e 3afc 1e3e 1545 0abd 753a 383e
00000190: 237d 83bd 51d3 f9be f7e5 10be 41f2 b9bd
000001a0: 1b75 6a3d f0fe 863c 986e babe f9a3 b73d
000001b0: 41f2 303e 3292 00bf 6be7 6cbc acec c33e
000001c0: 164e e63d 47cb b23d bebf 6bbc 7826 0dbc
000001d0: bd5b 23bf ca6a 083e 7c10 6b3d 91f9 91be
000001e0: 7bf8 c63d 9b4c d2be eff8 14bc f86b 7c3e
000001f0: 7acf bbbe 2292 063c aa5a 2f3c d8f6 ef3d
00000200: 30e6 12bf da89 86be 0413 8b3d ba8d 993e
00000210: 5b5d 123e 7776 e8bd 243d 0f3e 1f7c e93d
00000220: cf38 f03d 06d3 35be 87ef a0be 99c2 f1be
00000230: 9ca5 2ebc bd5b f63e 7095 583d 65fd cf3d
00000240: 1e4a c5be c929 74bc 0fe7 debe 2f20 9d3e
00000250: 6ac2 23be 5b38 e9bc 0f17 afba 4a37 9b3e
00000260: 7ec3 ab3e fecf 1c3c a93e dfbe d500 6dbc
00000270: 3449 a2bd d797 d7be 291d 9a3e db27 3ebc

model.0.bias f4 [32]
-0.4200408 0.112582475 -0.0828426 -0.44144836 0.29526767 -0.12352194 -0.2710415 -0.3242494
-0.30755112 0.25726855 -0.2105643 -0.108555846 0.19477631 -0.04659134 -0.14559728 0.010304422
0.31177515 0.1982323 -0.29150945 -0.2840342 -0.32062235 0.14227235 -0.30232123 0.23353358
-0.13840942 0.33377653 -0.14600073 -0.1693947 -0.12600014 0.28701228 -0.285144 -0.40357006
00000000: 960f d7be a491 e63d 62a9 a9bd 8505 e2be
00000010: 532d 973e 12f9 fcbd f4c5 8abe 0404 a6be
00000020: 5777 9dbe b4b8 833e 2b9e 57be 8752 debd
00000030: 7173 473e 90d6 3ebd 7417 15be e1d3 283c
00000040: fea0 9f3e 68fd 4a3e ba40 95be ee6c 91be
00000050: 9d28 a4be d8af 113e d9c9 9abe 6d23 6f3e
00000060: 33bb 0dbe c2e4 aa3e 3781 15be ce75 2dbe
00000070: 2e06 01be 46f3 923e 65fe 91be bca0 cebe

model.3.weight f4 [16, 32]
0.093987025 -0.21734518 0.045908682 -0.018200567 -0.20509307 0.22130431 -0.02606111 -0.15402912
0.09317514 -0.182952 -0.06156274 -0.12256398 -0.10767634 0.0028838743 -0.29479232 0.098590635
-0.459494 -0.50273603 0.08444025 0.06937045 -0.092359066 -0.2713455 0.14218347 -0.21993743
-0.0989361 -0.1554956 0.027905965 -0.22906888 0.13772917 -0.26620173 0.26398474 -0.34202552
0.069514945 -0.3682135 0.10998346 0.017811997 -0.3470814 -0.06085323 -0.034758035 -0.1351947
-0.012206446 0.0556598 -0.20291504 -0.03061953 -0.030140672 0.023796307 -0.355576 -0.10031051
0.05937941 0.046102628 0.14097227 0.026249887 -0.1031372 -0.08707051 0.11343932 -0.022085024
-0.13823675 -0.41818374 0.051676612 -0.10677445 0.1972661 0.055881787 0.47321546 -0.17209426
0.085812874 -0.119296245 0.08890504 -0.10368732 -0.1496853 0.1438343 0.046486452 -0.23724881
0.14075296 -0.13690862 -0.019890606 -0.03955307 -0.033542763 0.019294595 -0.3511204 0.022990828
-0.5317082 -0.2496281 0.13335054 0.023870388 -0.021966279 -0.1428162 0.09039027 -0.18581602
0.04463633 -0.113412894 -0.07513366 -0.20734681 0.061294165 -0.29445496 0.26571926 -0.21333665
-0.3352999 0.25155583 -0.38476557 -0.24853408 -0.08107125 0.19127241 -0.33934653 0.058403526
-0.41618 0.18515635 0.26747876 0.002046815 0.023021016 -0.10571357 0.004971335 0.12534127
0.024157662 0.16611248 0.002082974 -0.37285042 0.32827854 0.30938354 -0.20574673 0.21867418
0.42151913 0.12173059 -0.11851401 0.09994508 -0.2975875 -0.13409393 -0.05712763 0.12764741
0.08593629 -0.39222154 0.054542065 0.11059204 -0.2929729 0.13785459 0.048553467 -0.32257184
0.08832668 0.00844194 -0.15738347 -0.009143908 -0.257803 -0.00518606 -0.3407365 0.0858075
-0.41169548 -0.43609127 0.25143296 -0.018617742 -0.08072424 -0.14879486 0.08250678 -0.22672622
0.10181843 -0.46976575 0.037300993 -0.0774468 0.010005744 -0.47020262 0.06406022 -0.26412293
-0.25355324 -0.06261201 -0.3236688 -0.2568668 -0.11117641 0.15585476 -0.28932944 0.10032527
-0.3269509 0.23078896 0.26134837 0.031201305 0.027670275 -0.0963516 0.006591068 0.30973762
0.07171462 -0.09409893 0.008077692 -0.4684354 0.19597146 0.04545907 -0.28260142 0.08513413
0.4557333 -0.0735722 -0.31455725 0.04687113 -0.24816923 0.046187703 -0.016749892 0.11846607
-0.40675005 0.23215227 -0.25280982 -0.39326134 0.37340248 0.16589423 -0.21514927 0.39231834
-0.21975006 0.13500938 0.21622153 0.10867251 0.26138085 -0.08463048 0.2709956 0.12651813
-0.10420709 0.056271385 0.21942663 -0.1818271 0.1520075 0.24250382 -0.30258203 0.1437817
0.2691036 0.21297945 0.011658528 0.23884454 -0.29613566 0.21521816 -0.13200462 0.31913716
-0.030888882 0.10190096 0.0009903952 -0.29905462 0.112294406 -0.13970761 0.02454273 0.118193746
0.17061752 -0.42472306 -0.029595308 -0.3460701 -0.17266612 0.09069055 0.15454882 -0.12089531
-0.32133162 -0.34813863 0.39407372 0.021223672 -0.04293559 -0.09109136 -0.053086057 -0.1652093
-0.08036215 0.23197582 0.079217575 -0.12899551 0.031449903 -0.35051972 -0.17456223 0.19198604
00000000: 457c c03d bc8f 5ebe be0a 3c3d 5b19 95bc
00000010: eb03 52be 999d 623e 1c7e d5bc cfb9 1dbe
00000020: 9cd2 be3d c557 3bbe 3629 7cbd d302 fbbd
00000030: 6a85 dcbd 62ff 3c3b 05ef 96be e3e9 c93d
00000040: cc42 ebbe 4fb3 00bf 03ef ac3d 1812 8e3d
00000050: c026 bdbd cced 8abe 8b98 113e 4737 61be
00000060: 039f cabd 3d3a 1fbe 0d9b e43c 0891 6abe
00000070: e008 0d3e 984b 88be 0229 873e f81d afbe
00000080: da5d 8e3d 7b86 bcbe 023f e13d 77ea 913c
00000090: a7b4 b1be 3d41 79bd 715e 0ebd 7b70 0abe
000000a0: 8cfd 47bc 88fb 633d f6c8 4fbe cfd5 fabc
000000b0: 92e9 f6bc 79f0 c23c 0f0e b6be 996f cdbd
000000c0: d337 733d 1cd6 3c3d 095b 103e 010a d73c
000000d0: 9939 d3bd 0652 b2bd e052 e83d a7eb b4bc
000000e0: ef8d 0dbe 2e1c d6be dbaa 533d 90ac dabd
000000f0: 2000 4a3e 4de4 643d 4c49 f23e 7a39 30be
00000100: a9be af3d 9751 f4bd d813 b63d 055a d4bd
00000110: 1a47 19be 4c49 133e 9468 3e3d 5af1 72be
00000120: 8b21 103e c631 0cbe a0f1 a2bc 6602 22bd
00000130: 2364 09bd b30f 9e3c 0ec6 b3be 4357 bc3c
00000140: 071e 08bf 829e 7fbe 0b8d 083e d58b c33c
00000150: a0f2 b3bc 693e 12be 891e b93d 8e46 3ebe
00000160: 96d4 363d 0545 e8bd addf 99bd b952 54be
00000170: 970f 7b3d cdc2 96be 5b0c 883e ec74 5abe
00000180: 6eac abbe edcb 803e feff c4be b87f 7ebe
00000190: af08 a6bd eadc 433e d4be adbe 8938 6f3d
000001a0: 8c15 d5be a099 3d3e faf2 883e db23 063b
000001b0: 9296 bc3c 5b80 d8bd 95e6 a23b 7659 003e
000001c0: 4ae6 c53c 6419 2a3e 8182 083b 40e6 bebe
000001d0: 2014 a83e 8567 9e3e 45af 52be 20ec 5f3e
000001e0: 5bd1 d73e e34d f93d 79b7 f2bd 02b0 cc3d
000001f0: 645d 98be eb4f 09be a9fe 69bd 01b6 023e
00000200: 5eff af3d 43d1 c8be 8067 5f3d 147e e23d
00000210: 8b00 96be c129 0d3e 00e0 463d 2328 a5be
00000220: 9ee4 b43d 1050 0a3c 2229 21be 54d0 15bc
00000230: c1fe 83be d3ef a9bb 0475 aebe d8bb af3d
00000240: c0c9 d2be 5b47 dfbe d2bb 803e 3c84 98bc
00000250: c052 a5bd ae5d 18be 51f9 a83d eb2a 68be
00000260: 2e86 d03d 2385 f0be edc8 183d 6e9c 9ebd
00000270: 22ef 233c 66be f0be 0132 833d 1f3b 87be
00000280: bbd1 81be ba3a 80bd ebb7 a5be 0c84 83be
00000290: 75b0 e3bd 6498 1f3e fd22 94be 5677 cd3d
000002a0: 1c66 a7be f153 6c3e 74cf 853e e199 ff3c
000002b0: c6ac e23c fd53 c5bd e3f9 d73b ee95 9e3e
000002c0: 1ddf 923d f1b6 c0bd 4c58 043c c4d6 efbe
000002d0: beac 483e 4a33 3a3d 22b1 90be ce5a ae3d
000002e0: e055 e93e 06ad 96bd a60d a1be f1fb 3f3d
000002f0: 1320 7ebe 512f 3d3d 1237 89bc 579e f23d
00000300: 8b41 d0be 53b9 6d3e 4a70 81be 8d59 c9be
00000310: 9c2e bf3e 2de0 293e 1750 5cbe f3dd c83e
00000320: 2906 61be e63f 0a3e 2d69 5d3e b18f de3d
00000330: b6d3 853e bf52 adbd efbf 8a3e f88d 013e
00000340: 876a d5bd d37c 663d 60b1 603e e230 3abe
00000350: dba7 1b3e ec52 783e 08ec 9abe 833b 133e
00000360: f2c7 893e 4917 5a3e 6903 3f3c aa93 743e
00000370: 189f 97be 2662 5c3e 382c 07be f265 a33e
00000380: ae0a fdbc 73b1 d03d 26d0 813a b01d 99be
00000390: 9cfa e53d 830f 0fbe d60d c93c 900f f23d
000003a0: 5cb6 2e3e 4d75 d9be dc71 f2bc 1a30 b1be
000003b0: 63cf 30be f8bb b93d 0c42 1e3e f697 f7bd
000003c0: 9485 a4be 3a3f b2be 08c4 c93e 44dd ad3c
000003d0: 3bdd 2fbd 1b8e babd c470 59bd a02c 29be
000003e0: e994 a4bd 128b 6d3e d33c a23d 6617 04be
000003f0: 9dd1 003d 5277 b3be 71c0 32be fd97 443e

model.3.bias f4 [16]
0.095054105 0.05902486 0.055371076 0.07889021 0.0768184 0.045856953 0.02700922 0.002204866
0.07558995 0.060065906 0.064589664 0.058038585 0.11494909 0.08037432 0.2416952 -0.005173361
00000000: baab c23d 0dc4 713d c8cc 623d 3191 a13d
00000010: f752 9d3d 80d4 3b3d 7142 dd3c 837f 103b
00000020: e7ce 9a3d ab07 763d 9647 843d deb9 6d3d
00000030: 6e6a eb3d 4b9b a43d f27e 773e 4c85 a9bb

model.6.weight f4 [8, 16]
-0.5713393 -0.68335927 -0.62852794 0.013839586 -0.64414406 0.014304083 0.007156533 0.20624761
-0.41212612 0.008746458 0.0072859772 0.015698913 -0.3559098 0.011692342 -0.38133106 0.14615954
0.14208964 0.083866686 0.14406581 -0.22650681 0.2006233 -0.3005928 -0.1988014 -0.09244022
0.071721025 -0.10256174 -0.21441609 -0.39540133 0.43663284 -0.004587003 0.21568646 -0.1751217
0.010400299 0.0041090227 0.085717715 -0.7580933 0.20429194 -0.45913953 -0.7203186 -0.09652065
0.015227703 -0.8741818 -0.53520757 -0.5859142 0.4645919 -0.395015 0.1397064 -0.1780577
-0.0037752613 -0.037651286 0.09275452 -0.14626631 0.0012076527 -0.23193647 -0.022770982 0.34097123
0.18569182 -0.045404125 -0.05476549 -0.07437202 -0.37187973 -0.3202835 -0.48661488 0.6080095
-0.46052143 -0.31463128 -0.34346578 0.015282654 -0.43300495 0.022563912 0.010314123 -0.40833366
-0.562403 0.00026571788 0.019699086 0.0046732817 -0.31254333 -0.0007091997 -0.30298036 -0.50178075
-0.19884183 -0.056723464 -0.20060775 0.100154474 -0.29764757 0.1422986 0.059549574 -0.23663186
-0.2368031 0.032182433 0.07853371 0.11451156 -0.23084271 0.060126655 -0.059713222 -0.2317352
0.035785794 0.16987965 0.009578895 -0.49988565 0.022090532 -0.48181772 -0.60166967 -0.054200377
-0.089669 -0.62512755 -0.5605047 -0.4413849 0.57524645 -0.44343606 0.0039095785 -0.26893952
0.20253634 -0.032930937 0.03501933 -0.2568303 0.2435858 -0.40631077 -0.053956464 0.1622965
0.243837 -0.12984778 -0.12632044 -0.1448007 -0.01936283 -0.20387901 -0.34005415 0.14626224
00000000: 4b43 12bf a2f0 2ebf 35e7 20bf 6ebf 623c
00000010: a0e6 24bf ac5b 6a3c 5a81 ea3b 9332 533e
00000020: 3202 d3be 4e4d 0f3c 35bf ee3b 029b 803c
00000030: cf39 b6be 3d91 3f3c d33d c3be d9aa 153e
00000040: f27f 113e 4cc2 ab3d fd85 133e 67f1 67be
00000050: 3270 4d3e 4de7 99be 9892 4bbe 4c51 bdbd
00000060: 79e2 923d e40b d2bd e48f 5bbe 0b72 cabe
00000070: 578e df3e 924e 96bb e9dc 5c3e 1a53 33be
00000080: 0466 2a3c fba4 863b c58c af3d 6712 42bf
00000090: e831 513e 5614 ebbe cd66 38bf 9eac c5bd
000000a0: 9e7d 793c 61ca 5fbf 5d03 09bf 79fe 15bf
000000b0: fdde ed3e 683f cabe 320f 0f3e c254 36be
000000c0: 606a 77bb 3c38 1abd 15f6 bd3d d6c6 15be
000000d0: 1a4a 9e3a c180 6dbe 368a babc c893 ae3e
000000e0: ff25 3e3e adf9 39bd c751 60bd 5c50 98bd
000000f0: 0567 bebe 33fc a3be 9625 f9be 83a6 1b3f
00000100: 77c9 ebbe 5a17 a1be bfda afbe 1964 7a3c
00000110: d3b2 ddbe f4d7 b83c 91fc 283c 1c11 d1be
00000120: a5f9 0fbf 0d50 8b39 fa5f a13c 5422 993b
00000130: ae05 a0be 96e9 39ba 3e20 9bbe b474 00bf
00000140: 319d 4bbe dd56 68bd 1e6c 4dbe ca1d cd3d
00000150: 4365 98be b9b6 113e 41ea 733d 9f4f 72be
00000160: 837c 72be bad1 033d 48d6 a03d 0985 ea3d
00000170: 0862 6cbe 5e47 763d da95 74bd fe4b 6dbe
00000180: 2094 123d eef4 2d3e ccf0 1c3c 03f1 ffbe
00000190: 34f7 b43c d0b0 f6be 0607 1abf 3701 5ebd
000001a0: 61a4 b7bd 5c08 20bf 3c7d 0fbf 34fd e1be
000001b0: 5a43 133f 0d0a e3be ec1b 803b 71b2 89be
000001c0: b065 4f3e 97e2 06bd 6e70 0f3d 437f 83be
000001d0: 8e6e 793e f707 d0be 7401 5dbd 0e31 263e
000001e0: 68b0 793e d1f6 04be 255a 01be a246 14be
000001f0: cc9e 9ebc a9c5 50be 941b aebe c5c5 153e

model.6.bias f4 [8]
0.18732205 0.30636147 0.3251136 0.2602035 0.24254142 0.14528261 0.3906104 0.39540184
00000000: 5ad1 3f3e 69db 9c3e 4a75 a63e 6539 853e
00000010: c75c 783e f7c4 143e 16fe c73e 1c72 ca3e

model.9.weight f4 [3, 8]
2.2711227e-05 1.5977475e-05 -1.6588849e-05 -6.1920855e-06 5.04486e-06 -1.1445545e-06 2.345922e-05 -3.4087057e-06
-0.6903118 0.70497644 0.7738117 0.035667233 -0.37598157 -0.12312791 0.6447823 0.3479333
-0.32078406 0.3902315 0.47452012 0.93010414 -0.47160476 -0.15439005 0.4154755 0.6069629
00000000: fd83 be37 5e07 8637 4828 8bb7 9cc5 cfb6
00000010: 0447 a936 989e 99b5 4bca c437 1ec1 64b6
00000020: 46b8 30bf 5679 343f 8618 463f ce17 123d
00000030: a880 c0be 7c2a fcbd 7410 253f 5024 b23e
00000040: cf3d a4be 6ccc c73e 4df4 f23e 4e1b 6e3f
00000050: 2e76 f1be 6d18 1ebe 34b9 d43e ec61 1b3f

model.9.bias f4 [3]
-9.408426e-06 -0.1712229 -0.2376059
00000000: e2d8 1db7 0e55 2fbe f64e 73be
