hyperFakeModel/examples/experiments/results/trained_models_20250525_181944/simple_neural_network/model.pth (torch, 12285 bytes, 6 tensors)

0.weight f4 [64, 3]
00000000: 94a0 84be e5ba 81bd 3e6a 8c3e 273a debe
00000010: 12d2 d33e a743 43bd 170d 01bf 5c46 94be
00000020: b17e 133f 7873 f63e da25 99be 1d39 0d3f
00000030: ce49 1bbf b98b 29bf ea70 ca3a 0eee e23e
00000040: 848e 9abe 3e07 0d3e 8bc7 0bbf a7ef e8be
00000050: d1e8 eabe 751b f73e adaf ec3d 9ab6 773e
00000060: 131a d23e 74cf 81be 9307 04bf 0f2d cc3e
00000070: e08c adbe 8885 0a3f 891b 393e 257b 5fbe
00000080: 4faf 183f ca8b dd3e 1a5d 2e3f 61da 2cbe
00000090: cacc 0fbd 34af 0f3d d621 eebb 96ff 07be
000000a0: 90d2 023d 742f 1d3f f415 c3be 66a6 b63e
000000b0: aee0 dbbe 0462 e43d 72da 2a3f 40b4 8fbe
000000c0: 9cbc 133f b5a5 a9be 6c4c ea3e e25f 0dbf
000000d0: 5871 ecbe 912f 69be d16d 31be 90e4 9fbe
000000e0: 7f14 f33e e855 363e 0fe4 c63d cd07 853e
000000f0: cede ed3e 6d61 e8be 4c24 d53e 4124 febe
00000100: b4ce 793e bf4f 093f 7ffe d63e 1f79 223f
00000110: 2bfc 48be 2921 fe3e a89d a1be ffbc da3e
00000120: 0896 153f 2e1a 2abf 99b3 9ebe 537e ccbe
00000130: a20e f63e ecdd 16bb e803 bf3e d5f1 70be
00000140: 3b4d 8fbe f713 db3e ecd0 b63e 15c3 cb3e
00000150: e8d7 49be c616 1c3f 60e7 19be 3f16 d83e
00000160: 500f 15bf 00f5 fd3e aee2 ddbe 395e 06bf
00000170: 80e3 153e d085 803d 51b5 d1be 258d e7be
00000180: 1db2 f63e 486e 6cbe ccc8 d2bd f7a7 a13e
00000190: 1e62 e03e f4dd fe3e 70ca e03e e563 81be
000001a0: b5e2 77be 70a4 e3bd 69fd ae3d ab93 0bbf
000001b0: 47ca e63e 0b7b c43e e3c5 683e 09d1 ffbd
000001c0: ef9c f8be bb49 91be ecd1 8c3e 524e e33e
000001d0: a9c0 91be 87ae 623e 5ba6 b7be 182d 923d
000001e0: d5ba 71be 0271 043f 3ced eebb 6861 503e
000001f0: c178 7fbc 72d0 04bf 79cc 053f 514a 8a3e
00000200: 0c2f ca3e 56f7 893e aea9 a23e 69f0 3d3e
00000210: 843e d5be 9050 263d 7054 89be 1e96 afbe
00000220: 9364 c33e 99e4 bc3e 6dfb 8d3d 914a 183f
00000230: f92e 5abe ea97 053f 1845 f73e 6063 95be
00000240: ecf6 08be 4a9d d73e ade8 2ebe 342b c8be
00000250: ce86 01bf 544e 68ba 8142 373e 39f1 9fbe
00000260: fda8 123f 1022 f13e 0614 d5be 865b 18bf
00000270: 5533 8fbc 9a89 ba3e 27bb 5c3e 2fde ad3e
00000280: 169d f23d 34c3 91bd 9814 323e 8572 d1bd
00000290: 1250 353e d6f1 a6be fc29 233f bb18 4b3d
000002a0: 9664 24be 3735 1ebf 005d 643e b431 c2be
000002b0: cfff e3bd faeb a6be 3d06 06be 1ff9 06bf
000002c0: cc1d 05bf 0b4d e5be 11ad 213e 9704 febe
000002d0: 465f 3e3e f30d 5fbd 4efc 7e3e a521 d53e
000002e0: e4c1 d1be 6b6a b23e 4324 97bd ae16 1e3f
000002f0: 92f7 80be 5d31 abbd b382 fc3d 0a9b a33e
-0.2590376 -0.063344754 0.27424806 -0.43403742 0.41371208 -0.04767194 -0.504106 -0.2895993
0.5761519 0.4813497 -0.2991169 0.5516527 -0.6065949 -0.66228825 0.0015445028 0.44322246
-0.30186856 0.13772294 -0.54601353 -0.4549534 -0.4588075 0.48263136 0.11556945 0.2419075
0.41035518 -0.25353587 -0.5157406 0.39878127 -0.33896542 0.5411 0.1807691 -0.2182432
0.596425 0.43270713 0.6811081 -0.1688018 -0.03510741 0.035079196 -0.007267217 -0.13281092
0.03193909 0.6140053 -0.38102686 0.35673827 -0.42944854 0.111515075 0.6673957 -0.28067207
0.5770967 -0.33134237 0.4576143 -0.5522443 -0.46180224 -0.22772051 -0.17327048 -0.31229067
0.47476575 0.17806208 0.097114675 0.25982514 0.4645905 -0.4538683 0.41629255 -0.49637035
0.24395257 0.5363731 0.4199104 0.63466066 -0.19627444 0.49634674 -0.31565595 0.42722318
0.58432055 -0.664462 -0.30996397 -0.39940128 0.4805804 -0.002302046 0.37307668 -0.23529752
-0.2798861 0.4278867 0.3570627 0.39797273 -0.19711268 0.6097225 -0.15029669 0.42204472
-0.5822649 0.49600983 -0.43337005 -0.5248752 0.14637566 0.06275523 -0.40958646 -0.45224872
0.48182765 -0.23088944 -0.10292205 0.3157346 0.43824857 0.49778712 0.43904448 -0.25271526
-0.24207576 -0.11115348 0.08544428 -0.545222 0.450762 0.38375124 0.22731738 -0.12491042
-0.4855723 -0.28376564 0.27503908 0.4439569 -0.284673 0.2213689 -0.35869107 0.07137507
-0.23606427 0.51734936 -0.007291464 0.20349658 -0.015592755 -0.5188056 0.52265126 0.27009824
0.3948902 0.26946515 0.3177008 0.1854874 -0.41649258 0.040604174 -0.26822233 -0.34294218
0.3816267 0.36893156 0.06932721 0.5948878 -0.21306981 0.5218493 0.48294902 -0.2917738
-0.13375443 0.4211219 -0.17080946 -0.3909546 -0.5059632 -0.00088617695 0.17896463 -0.31238726
0.57289106 0.470963 -0.4161684 -0.59514654 -0.017480532 0.36433107 0.21555768 0.33958575
0.11846368 -0.0711731 0.17390668 -0.10226921 0.17706326 -0.3260638 0.6373594 0.04958413
-0.16053995 -0.6179995 0.22301102 -0.37928545 -0.11132776 -0.3260191 -0.13088317 -0.5272388
-0.5199859 -0.44785342 0.15788676 -0.49612877 0.18591031 -0.054456662 0.24900934 0.4162723
-0.4096824 0.34846815 -0.07379963 0.61753356 -0.2518888 -0.08359025 0.123296164 0.31954223

0.bias f4 [64]
00000000: cdf7 f73e 3390 6cbd 9aac fdbe c292 e5bd
00000010: 2cf0 19be 5d1b dc3e c996 bfbe b4d4 4bbe
00000020: 43e7 163e 9651 0bba 5dea df3e d925 8abe
00000030: 1a6d d8be 7689 c0be c0a8 0bbf 2502 113e
00000040: 5a1c 2a3e f089 ccbe 5a04 e13e fea1 b2be
00000050: 723f 6bbe c743 88be 0725 d03e 4c2a 8ebe
00000060: 64d4 3fbd 2f5a 073f 9a24 16bf 802a 0fbf
00000070: 8691 c3be f71e 323e e67f d53d 3dea 69bc
00000080: 691a 46be 12f0 5a3e 5a74 d6be b702 78bd
00000090: a682 ddbe 8d32 ab3e 42b8 e13e 1cac ac3e
000000a0: 9715 e13a 9120 30be b20f 013f dda8 043e
000000b0: be70 5bbe d35e 373d df57 a4be 8ae1 f33b
000000c0: c8b3 b3be 4ce6 cebd 348b b83e 338b 7f3e
000000d0: 1d41 e03d 8504 b6be fa6b 86be df3c 59bd
000000e0: 2d12 d0be 85cf 873e c709 c6be 8d19 c6be
000000f0: ed42 a5be 681b ff3d 491a 203f b943 23bc
0.48431244 -0.057754707 -0.49545747 -0.112096325 -0.15033025 0.42989627 -0.37419727 -0.19905359
0.14736657 -0.00053145865 0.43733492 -0.26982 -0.42270738 -0.37604874 -0.5455437 0.14160974
0.16612378 -0.39948988 0.43948632 -0.34889215 -0.22973421 -0.2661421 0.4065325 -0.27766645
-0.04683341 0.52871984 -0.586496 -0.55924225 -0.38196963 0.17394625 0.10424785 -0.014277038
-0.19346012 0.21380642 -0.41885644 -0.060549464 -0.4326374 0.33437005 0.4408589 0.3372506
0.0017172572 -0.17199923 0.50414574 0.12955041 -0.21429726 0.044768166 -0.3209829 0.007442658
-0.350981 -0.101025194 0.36043704 0.24955444 0.109499194 -0.35550323 -0.26254255 -0.053036567
-0.40638867 0.26525512 -0.38679335 -0.3869137 -0.32277623 0.12456399 0.6254011 -0.009964877

3.weight f4 [32, 64]
00000000: 7c0f 063e 3de7 7439 f0a6 dd3c 4709 da3c
00000010: 483b 40bd 5e6b b9bd 7c7b d4bd 6343 a33d
00000020: dc7a e8bd eabf b03d 8323 453d 628f dcbb
00000030: 08e1 e23d daa1 893d c324 123d 76c5 a2bd
00000040: a90a 64bd 186d 4ebe f1a4 cfbc fd6d 36be
00000050: dfe6 e3bc 1b1c f73c 8d09 cabd 7e71 81bd
00000060: 12b8 f5bd 3fca 0a3c 62fc 373b cc29 963c
00000070: db90 9f3d f4fc c53d 6c4f 16bd b654 1fbd
00000080: 3c01 e13c 9109 cbb9 d183 93bc 1ba7 8abc
00000090: c507 6abd 4f88 13bc 208f f9bd 0bdc a63c
000000a0: e7a6 67bc 7ffa 693d a14f 443c a5df 8e3b
000000b0: f487 34be 656c d73d 32a2 d33d 4da2 47bd
000000c0: 0cdc 2dbd 13a7 4ebe dcb5 90bd a1d9 d1bd
000000d0: 7df5 e03b b6f9 abbd c727 b2bd 7d45 8e3d
000000e0: d19e 8fbe 4bb0 edbd 41b2 f03c b64d 93bd
000000f0: 6f9e afbd d562 a93d 1269 46bc a358 4f3e
00000100: 45de 243c c696 0e3e 1a7e efbd 737f 243d
00000110: 33f1 393d e410 5c3d b547 40ba c5a8 a33d
00000120: 9dab 55bd c607 c63b 8307 d2bc 880a 013b
00000130: 9042 d33d ae97 04be f364 9b3d 996e afbc
00000140: 680c fa3d 3ff2 a8bd 784b 06bd a62e 5f3e
00000150: 7656 bf3d 880f ba3c ba0a 953d 2aac 743d
00000160: 9864 bf3c 46d1 0e3d 17d5 97bd 1645 913c
00000170: ca64 d03c 38c1 36bd 092f 50be bde2 fbbd
00000180: d09c a03d 780a 69bc 2e73 623d aa76 14bd
00000190: 618a cfbd 4b6b 9bbd cd5e e43d 3a11 a03d
000001a0: bdbb 243b 2890 c63c 5507 ce3d c7f7 5cbd
000001b0: 27e2 073d 998c 65bd 5b65 533c bbd9 a83d
000001c0: 7ecb 31bc bff6 f5bc 45b2 7abd 4417 51bd
000001d0: a973 c53c 6456 fc3d 7e7a ec3d 8e9e 5f3d
000001e0: 733a 423c ed77 353c 716f 4bbe f2c7 8bbd
000001f0: 2ea7 8a3e fda0 8ebd 2923 10bc a043 b4bd
00000200: 7bb1 8bbd 51d1 63bd 8836 6e3c e46e 8b3d
00000210: 79b3 48be d6b7 6f3d 1b9b f43c 6add a7bd
00000220: f9bf c73d 2e85 a9bc c025 c9bd 31d2 81bd
00000230: 2437 33bd 8867 123e d0bc 4a3d 084c 9fbd
00000240: bfe7 acbd 230d d8bd 9c64 623d ab18 9b3c
00000250: 6bd9 f13b 2687 0bbc cb90 fcbd 4188 113d
00000260: 519e 3bbe e19e 013e 48ee 8e3c 1751 c73c
00000270: cf1e 593b 4aa2 973d d39d 6b3c ff2a fa3d
00000280: 96da 4b3c e022 e73d 828c 52be 216d 10be
00000290: 5003 2f3d 8486 5dbd 8ff8 ff3c 97b9 883c
000002a0: 5abd 3fbe b654 5f3d 42cf 8ebd 94ef 793d
000002b0: 4a15 10be ca3a 2a3e 070c a83d cc85 89bd
000002c0: 9463 21be c5e1 3dbe ec56 833d a4f6 cbbc
000002d0: f2aa a83d 507c b6bd 2b9e 28be 4e80 153b
000002e0: 2aff e5bd 3227 90bd dbdb dbbd 3e50 7f3d
000002f0: 0c8e 57bd f30c ddbc 6a00 003b e27a 473e
00000300: 5e93 9fbc f4cd 60be aaff e23c 872e 703c
00000310: 9f60 a03d b5ec 933d 7310 353e 6fd8 9bbd
00000320: 2a8c f23c 22f7 cf3d 6320 ad3d 28d5 8ebd
00000330: 2203 8dbd 9808 d73d 0217 003c b3c7 15be
00000340: 8788 0b3e ab9a 8e3c ce43 aebc d65a 29bd
00000350: cd87 363d f274 dabd fa23 b8bd d7ee 06bd
00000360: 3c65 3bbc bfbd 7abe fd61 653d 2b8a 973d
00000370: 8f1f 04be 7482 8d3d 6e22 073e 0fd8 4e3e
00000380: 13d3 01bd 241a bebd 2a46 083e 9391 a8bd
00000390: 51cf ec3c 3815 273e a49c 21bc b27a 273c
000003a0: 8246 e6bb 1fd2 23bd a516 fdbd 9ba9 43be
000003b0: e512 8bbd 8017 18be 2cd4 a3bb 713b 4bbe
000003c0: 3d5a a33d a184 583d 2695 c83d 0d98 ea3d
000003d0: a285 78be b40a 053c eabd a5bd 21f5 5dbe
000003e0: e04f a9bc 4f83 f13d 8c6f d93d 5389 a1bd
000003f0: c5ae e43d 0408 3e3d 7b49 d6bd 0bac 22bd
0.13091844 0.00023355796 0.027057141 0.026615752 -0.046931535 -0.09053682 -0.10375115 0.07971837
-0.113515586 0.08630355 0.04812957 -0.0067309598 0.110780776 0.06720324 0.03567959 -0.07947819
-0.05567423 -0.20158803 -0.025347205 -0.17815395 -0.027820049 0.030164769 -0.09865103 -0.06320475
-0.11997999 0.008471071 0.0028074016 0.018330477 0.07791301 0.096673876 -0.036696836 -0.038899146
0.027466409 -0.00038726305 -0.01800719 -0.016925385 -0.057136316 -0.0090046665 -0.12185502 0.020368597
-0.014138914 0.057123657 0.011981876 0.0043601566 -0.17629987 0.105187215 0.10333671 -0.048738766
-0.04244618 -0.20180921 -0.07065937 -0.102465875 0.006865202 -0.08397238 -0.08698993 0.069468476
-0.28050855 -0.11605891 0.029381873 -0.071925566 -0.08575141 0.08270804 -0.012110012 0.20248656
0.010062759 0.13924703 -0.11693974 0.040160608 0.04539604 0.053727046 -0.0007334904 0.079911746
-0.052165616 0.006043407 -0.025638347 0.0019690115 0.1031543 -0.12948486 0.07587614 -0.021415042
0.122093976 -0.0824933 -0.032786816 0.21795139 0.09342663 0.022712484 0.072774366 0.0597345
0.023363397 0.034867547 -0.074136905 0.017733138 0.025438685 -0.04461786 -0.20330442 -0.12299106
0.078424096 -0.014223687 0.055285625 -0.03624598 -0.101338156 -0.07588824 0.11150894 0.07815786
0.0025136315 0.024238661 0.10059992 -0.053947236 0.03317466 -0.056042287 0.012902583 0.08244654
-0.010851739 -0.030024884 -0.061205167 -0.05104758 0.024103003 0.12321165 0.11546801 0.05459457
0.011854756 0.011075956 -0.1986673 -0.06825246 0.27080673 -0.069643 -0.008797445 -0.08801961
-0.06820961 -0.05561954 0.014539368 0.0680826 -0.19599713 0.05852493 0.029859116 -0.08196528
0.09753413 -0.020693388 -0.09821653 -0.06338919 -0.043753758 0.14297307 0.049496472 -0.07778174
-0.084426396 -0.10549381 0.05527173 0.018932661 0.0073806546 -0.008516109 -0.123323046 0.035530332
-0.18322112 0.12658264 0.017447606 0.024330659 0.0033129936 0.07404001 0.01438089 0.12215232
0.012442252 0.11285949 -0.20561412 -0.1410413 0.04272777 -0.054083362 0.031246452 0.016690059
-0.18724576 0.054524146 -0.06973125 0.061019495 -0.14070621 0.16623989 0.08205419 -0.06714973
-0.15760642 -0.18543155 0.064130634 -0.02489788 0.0823573 -0.089104295 -0.16466586 0.0022812071
-0.11230309 -0.07038726 -0.107352935 0.062332384 -0.0526257 -0.026983714 0.0019531497 0.1948047
-0.01947945 -0.21953565 0.0277098 0.0146595305 0.07830929 0.07222883 0.17682056 -0.07609641
0.029607851 0.10154559 0.08453443 -0.0697425 -0.06885363 0.10499686 0.0078179855 -0.1462696
0.136263 0.017407736 -0.021272566 -0.041346394 0.044563103 -0.10666837 -0.08991237 -0.03294262
-0.01143771 -0.24486445 0.056001652 0.073994 -0.12902664 0.069096476 0.13196728 0.20199607
-0.031695437 -0.0928233 0.13308015 -0.08230891 0.02890745 0.16316688 -0.009864006 0.010222124
-0.007027448 -0.03999531 -0.12357835 -0.19107668 -0.06790713 -0.14852715 -0.004999658 -0.19846894
0.07976196 0.05286086 0.09794073 0.11454783 -0.24269727 0.008120228 -0.08092864 -0.2167554
-0.02066797 0.11792623 0.10616979 -0.07887521 0.11166147 0.046394363 -0.10463234 -0.039714854

3.bias f4 [32]
00000000: 1e3a 353e c099 123d 9881 9a3d d40e 74bd
00000010: 207b 81bd bf81 e93c 0740 843d 5f61 ec3d
00000020: 8191 8f3d c2fe e5bd b456 203d 4072 fcbd
00000030: db04 0b3d d152 a3bc 84c5 bb3d d4bb 143e
00000040: 37cb 12be 7a80 853d 8c2c cbbc 71df f1bd
00000050: 2ede 013a 7382 2b3c f49c 643d e8d5 f23d
00000060: 77b9 063e 6be9 173d 9f36 173e 5b52 0c3d
00000070: a0e5 373d c98a f53c 2805 8e3d 6a0b 2a3c
0.17697951 0.03579116 0.07544249 -0.059584454 -0.06322312 0.02850425 0.06457525 0.115420096
0.070101745 -0.11230232 0.039145187 -0.12326479 0.033940177 -0.01993695 0.091685325 0.14524776
-0.14335333 0.065186456 -0.024801515 -0.11810196 0.0004954067 0.010468113 0.055813745 0.11857206
0.13156687 0.03708784 0.1476693 0.034258228 0.04489672 0.029973404 0.06934577 0.010378698

6.weight f4 [2, 32]
00000000: 7acb 2a3c 3089 0f3d 2379 06be ffbc d03d
00000010: 704a ee3d 7a68 05be cb77 7abe fbce 1cbe
00000020: 0215 9e3b de11 dd3c 4a67 45bd 8f68 3c3e
00000030: ce53 01bd f7ea bdbd 7e12 d33d 57f1 83be
00000040: 442b 013e 01b0 0bbe e165 8f3d 0d0c c33d
00000050: 42e8 0f3e c124 29be 30e6 dfbd 1a39 4a3e
00000060: 3fa3 23bc 268a 0e3e 0e59 efbd a969 0d3e
00000070: 19af b73d 0a22 333e 4a95 38be 9f51 4a3e
00000080: bf29 223e 7b83 1abe 31b0 363e 2863 9dbd
00000090: 9b45 a8bd 17e8 163e 08e2 7a3e c067 363e
000000a0: a4a9 27be dcc0 26be 2651 d0bd 7436 803d
000000b0: b066 aebe b1d8 aa3c 0d99 3ebe a471 793e
000000c0: aaaa 033e f3c5 4bbe e463 9b3d 9790 51bd
000000d0: 8692 5abd f52e 073e 8612 753e 5604 3fbe
000000e0: 2a45 0e3e 3ff0 1c3e c5ec f23d 4e1a f63c
000000f0: dbb6 8b3e fbc7 c3bd 3ade 893d cdbe c0bd
0.010424489 0.03504294 -0.13132147 0.10192298 0.116352916 -0.13028136 -0.2445976 -0.15313332
0.0048242817 0.026986059 -0.048194207 0.18399261 -0.031574063 -0.092733316 0.103062615 -0.25770065
0.12614161 -0.13641359 0.07001854 0.09523783 0.14053443 -0.16517927 -0.10932577 0.19748345
-0.009987651 0.13919887 -0.11686908 0.13809837 0.08968944 0.17493454 -0.180257 0.19757698
0.15836237 -0.15089218 0.17840649 -0.07684928 -0.08216401 0.14736973 0.24500287 0.17813015
-0.16373307 -0.16284508 -0.10171728 0.06260386 -0.3406272 0.02085528 -0.18613072 0.24359757
0.12858072 -0.1989973 0.07587412 -0.051163282 -0.053362392 0.13201506 0.23932847 -0.18653998
0.13893571 0.15326022 0.118615665 0.03004184 0.27287945 -0.095596276 0.067318395 -0.09411392

6.bias f4 [2]
00000000: 42ff 66bd 5117 f3bd
-0.056395777 -0.118696816
